…
2271load image file: data/resized224/frame_626_patch_0.jpg
2272load image file: data/resized224/frame_626_patch_1.jpg
2273load image file: data/resized224/frame_627_patch_0.jpg
2274load image file: data/resized224/frame_627_patch_1.jpg
2275load image file: data/resized224/frame_627_patch_2.jpg
____________________________________________________________________________________________________
Layer (type)                     Output Shape          Param #     Connected to                     
====================================================================================================
input_1 (InputLayer)             (None, 28, 28, 512)   0                                            
____________________________________________________________________________________________________
batch_normalization_1 (BatchNorm (None, 28, 28, 512)   2048        input_1[0][0]                    
____________________________________________________________________________________________________
activation_1 (Activation)        (None, 28, 28, 512)   0           batch_normalization_1[0][0]      
____________________________________________________________________________________________________
conv2d_1 (Conv2D)                (None, 28, 28, 128)   65664       activation_1[0][0]               
____________________________________________________________________________________________________
batch_normalization_2 (BatchNorm (None, 28, 28, 128)   512         conv2d_1[0][0]                   
____________________________________________________________________________________________________
activation_2 (Activation)        (None, 28, 28, 128)   0           batch_normalization_2[0][0]      
____________________________________________________________________________________________________
conv2d_2 (Conv2D)                (None, 28, 28, 128)   147584      activation_2[0][0]               
____________________________________________________________________________________________________
batch_normalization_3 (BatchNorm (None, 28, 28, 128)   512         conv2d_2[0][0]                   
____________________________________________________________________________________________________
activation_3 (Activation)        (None, 28, 28, 128)   0           batch_normalization_3[0][0]      
____________________________________________________________________________________________________
conv2d_3 (Conv2D)                (None, 28, 28, 512)   66048       activation_3[0][0]               
____________________________________________________________________________________________________
add_1 (Add)                      (None, 28, 28, 512)   0           input_1[0][0]                    
                                                                   conv2d_3[0][0]                   
____________________________________________________________________________________________________
batch_normalization_4 (BatchNorm (None, 28, 28, 512)   2048        add_1[0][0]                      
____________________________________________________________________________________________________
activation_4 (Activation)        (None, 28, 28, 512)   0           batch_normalization_4[0][0]      
____________________________________________________________________________________________________
conv2d_4 (Conv2D)                (None, 28, 28, 128)   65664       activation_4[0][0]               
____________________________________________________________________________________________________
batch_normalization_5 (BatchNorm (None, 28, 28, 128)   512         conv2d_4[0][0]                   
____________________________________________________________________________________________________
activation_5 (Activation)        (None, 28, 28, 128)   0           batch_normalization_5[0][0]      
____________________________________________________________________________________________________
conv2d_5 (Conv2D)                (None, 28, 28, 128)   147584      activation_5[0][0]               
____________________________________________________________________________________________________
batch_normalization_6 (BatchNorm (None, 28, 28, 128)   512         conv2d_5[0][0]                   
____________________________________________________________________________________________________
activation_6 (Activation)        (None, 28, 28, 128)   0           batch_normalization_6[0][0]      
____________________________________________________________________________________________________
conv2d_6 (Conv2D)                (None, 28, 28, 512)   66048       activation_6[0][0]               
____________________________________________________________________________________________________
add_2 (Add)                      (None, 28, 28, 512)   0           add_1[0][0]                      
                                                                   conv2d_6[0][0]                   
____________________________________________________________________________________________________
batch_normalization_7 (BatchNorm (None, 28, 28, 512)   2048        add_2[0][0]                      
____________________________________________________________________________________________________
activation_7 (Activation)        (None, 28, 28, 512)   0           batch_normalization_7[0][0]      
____________________________________________________________________________________________________
conv2d_7 (Conv2D)                (None, 28, 28, 128)   65664       activation_7[0][0]               
____________________________________________________________________________________________________
batch_normalization_8 (BatchNorm (None, 28, 28, 128)   512         conv2d_7[0][0]                   
____________________________________________________________________________________________________
activation_8 (Activation)        (None, 28, 28, 128)   0           batch_normalization_8[0][0]      
____________________________________________________________________________________________________
conv2d_8 (Conv2D)                (None, 28, 28, 128)   147584      activation_8[0][0]               
____________________________________________________________________________________________________
batch_normalization_9 (BatchNorm (None, 28, 28, 128)   512         conv2d_8[0][0]                   
____________________________________________________________________________________________________
activation_9 (Activation)        (None, 28, 28, 128)   0           batch_normalization_9[0][0]      
____________________________________________________________________________________________________
conv2d_9 (Conv2D)                (None, 28, 28, 512)   66048       activation_9[0][0]               
____________________________________________________________________________________________________
add_3 (Add)                      (None, 28, 28, 512)   0           add_2[0][0]                      
                                                                   conv2d_9[0][0]                   
____________________________________________________________________________________________________
batch_normalization_10 (BatchNor (None, 28, 28, 512)   2048        add_3[0][0]                      
____________________________________________________________________________________________________
activation_10 (Activation)       (None, 28, 28, 512)   0           batch_normalization_10[0][0]     
____________________________________________________________________________________________________
conv2d_10 (Conv2D)               (None, 28, 28, 128)   65664       activation_10[0][0]              
____________________________________________________________________________________________________
batch_normalization_11 (BatchNor (None, 28, 28, 128)   512         conv2d_10[0][0]                  
____________________________________________________________________________________________________
activation_11 (Activation)       (None, 28, 28, 128)   0           batch_normalization_11[0][0]     
____________________________________________________________________________________________________
conv2d_11 (Conv2D)               (None, 28, 28, 128)   147584      activation_11[0][0]              
____________________________________________________________________________________________________
batch_normalization_12 (BatchNor (None, 28, 28, 128)   512         conv2d_11[0][0]                  
____________________________________________________________________________________________________
activation_12 (Activation)       (None, 28, 28, 128)   0           batch_normalization_12[0][0]     
____________________________________________________________________________________________________
conv2d_12 (Conv2D)               (None, 28, 28, 512)   66048       activation_12[0][0]              
____________________________________________________________________________________________________
add_4 (Add)                      (None, 28, 28, 512)   0           add_3[0][0]                      
                                                                   conv2d_12[0][0]                  
____________________________________________________________________________________________________
batch_normalization_13 (BatchNor (None, 28, 28, 512)   2048        add_4[0][0]                      
____________________________________________________________________________________________________
activation_13 (Activation)       (None, 28, 28, 512)   0           batch_normalization_13[0][0]     
____________________________________________________________________________________________________
conv2d_13 (Conv2D)               (None, 14, 14, 256)   131328      activation_13[0][0]              
____________________________________________________________________________________________________
batch_normalization_14 (BatchNor (None, 14, 14, 256)   1024        conv2d_13[0][0]                  
____________________________________________________________________________________________________
activation_14 (Activation)       (None, 14, 14, 256)   0           batch_normalization_14[0][0]     
____________________________________________________________________________________________________
conv2d_14 (Conv2D)               (None, 14, 14, 256)   590080      activation_14[0][0]              
____________________________________________________________________________________________________
batch_normalization_15 (BatchNor (None, 14, 14, 256)   1024        conv2d_14[0][0]                  
____________________________________________________________________________________________________
activation_15 (Activation)       (None, 14, 14, 256)   0           batch_normalization_15[0][0]     
____________________________________________________________________________________________________
conv2d_16 (Conv2D)               (None, 14, 14, 1024)  525312      add_4[0][0]                      
____________________________________________________________________________________________________
conv2d_15 (Conv2D)               (None, 14, 14, 1024)  263168      activation_15[0][0]              
____________________________________________________________________________________________________
add_5 (Add)                      (None, 14, 14, 1024)  0           conv2d_16[0][0]                  
                                                                   conv2d_15[0][0]                  
____________________________________________________________________________________________________
batch_normalization_16 (BatchNor (None, 14, 14, 1024)  4096        add_5[0][0]                      
____________________________________________________________________________________________________
activation_16 (Activation)       (None, 14, 14, 1024)  0           batch_normalization_16[0][0]     
____________________________________________________________________________________________________
conv2d_17 (Conv2D)               (None, 14, 14, 256)   262400      activation_16[0][0]              
____________________________________________________________________________________________________
batch_normalization_17 (BatchNor (None, 14, 14, 256)   1024        conv2d_17[0][0]                  
____________________________________________________________________________________________________
activation_17 (Activation)       (None, 14, 14, 256)   0           batch_normalization_17[0][0]     
____________________________________________________________________________________________________
conv2d_18 (Conv2D)               (None, 14, 14, 256)   590080      activation_17[0][0]              
____________________________________________________________________________________________________
batch_normalization_18 (BatchNor (None, 14, 14, 256)   1024        conv2d_18[0][0]                  
____________________________________________________________________________________________________
activation_18 (Activation)       (None, 14, 14, 256)   0           batch_normalization_18[0][0]     
____________________________________________________________________________________________________
conv2d_19 (Conv2D)               (None, 14, 14, 1024)  263168      activation_18[0][0]              
____________________________________________________________________________________________________
add_6 (Add)                      (None, 14, 14, 1024)  0           add_5[0][0]                      
                                                                   conv2d_19[0][0]                  
____________________________________________________________________________________________________
batch_normalization_19 (BatchNor (None, 14, 14, 1024)  4096        add_6[0][0]                      
____________________________________________________________________________________________________
activation_19 (Activation)       (None, 14, 14, 1024)  0           batch_normalization_19[0][0]     
____________________________________________________________________________________________________
conv2d_20 (Conv2D)               (None, 14, 14, 256)   262400      activation_19[0][0]              
____________________________________________________________________________________________________
batch_normalization_20 (BatchNor (None, 14, 14, 256)   1024        conv2d_20[0][0]                  
____________________________________________________________________________________________________
activation_20 (Activation)       (None, 14, 14, 256)   0           batch_normalization_20[0][0]     
____________________________________________________________________________________________________
conv2d_21 (Conv2D)               (None, 14, 14, 256)   590080      activation_20[0][0]              
____________________________________________________________________________________________________
batch_normalization_21 (BatchNor (None, 14, 14, 256)   1024        conv2d_21[0][0]                  
____________________________________________________________________________________________________
activation_21 (Activation)       (None, 14, 14, 256)   0           batch_normalization_21[0][0]     
____________________________________________________________________________________________________
conv2d_22 (Conv2D)               (None, 14, 14, 1024)  263168      activation_21[0][0]              
____________________________________________________________________________________________________
add_7 (Add)                      (None, 14, 14, 1024)  0           add_6[0][0]                      
                                                                   conv2d_22[0][0]                  
____________________________________________________________________________________________________
batch_normalization_22 (BatchNor (None, 14, 14, 1024)  4096        add_7[0][0]                      
____________________________________________________________________________________________________
activation_22 (Activation)       (None, 14, 14, 1024)  0           batch_normalization_22[0][0]     
____________________________________________________________________________________________________
conv2d_23 (Conv2D)               (None, 14, 14, 256)   262400      activation_22[0][0]              
____________________________________________________________________________________________________
batch_normalization_23 (BatchNor (None, 14, 14, 256)   1024        conv2d_23[0][0]                  
____________________________________________________________________________________________________
activation_23 (Activation)       (None, 14, 14, 256)   0           batch_normalization_23[0][0]     
____________________________________________________________________________________________________
conv2d_24 (Conv2D)               (None, 14, 14, 256)   590080      activation_23[0][0]              
____________________________________________________________________________________________________
batch_normalization_24 (BatchNor (None, 14, 14, 256)   1024        conv2d_24[0][0]                  
____________________________________________________________________________________________________
activation_24 (Activation)       (None, 14, 14, 256)   0           batch_normalization_24[0][0]     
____________________________________________________________________________________________________
conv2d_25 (Conv2D)               (None, 14, 14, 1024)  263168      activation_24[0][0]              
____________________________________________________________________________________________________
add_8 (Add)                      (None, 14, 14, 1024)  0           add_7[0][0]                      
                                                                   conv2d_25[0][0]                  
____________________________________________________________________________________________________
batch_normalization_25 (BatchNor (None, 14, 14, 1024)  4096        add_8[0][0]                      
____________________________________________________________________________________________________
activation_25 (Activation)       (None, 14, 14, 1024)  0           batch_normalization_25[0][0]     
____________________________________________________________________________________________________
conv2d_26 (Conv2D)               (None, 14, 14, 256)   262400      activation_25[0][0]              
____________________________________________________________________________________________________
batch_normalization_26 (BatchNor (None, 14, 14, 256)   1024        conv2d_26[0][0]                  
____________________________________________________________________________________________________
activation_26 (Activation)       (None, 14, 14, 256)   0           batch_normalization_26[0][0]     
____________________________________________________________________________________________________
conv2d_27 (Conv2D)               (None, 14, 14, 256)   590080      activation_26[0][0]              
____________________________________________________________________________________________________
batch_normalization_27 (BatchNor (None, 14, 14, 256)   1024        conv2d_27[0][0]                  
____________________________________________________________________________________________________
activation_27 (Activation)       (None, 14, 14, 256)   0           batch_normalization_27[0][0]     
____________________________________________________________________________________________________
conv2d_28 (Conv2D)               (None, 14, 14, 1024)  263168      activation_27[0][0]              
____________________________________________________________________________________________________
add_9 (Add)                      (None, 14, 14, 1024)  0           add_8[0][0]                      
                                                                   conv2d_28[0][0]                  
____________________________________________________________________________________________________
batch_normalization_28 (BatchNor (None, 14, 14, 1024)  4096        add_9[0][0]                      
____________________________________________________________________________________________________
activation_28 (Activation)       (None, 14, 14, 1024)  0           batch_normalization_28[0][0]     
____________________________________________________________________________________________________
conv2d_29 (Conv2D)               (None, 14, 14, 256)   262400      activation_28[0][0]              
____________________________________________________________________________________________________
batch_normalization_29 (BatchNor (None, 14, 14, 256)   1024        conv2d_29[0][0]                  
____________________________________________________________________________________________________
activation_29 (Activation)       (None, 14, 14, 256)   0           batch_normalization_29[0][0]     
____________________________________________________________________________________________________
conv2d_30 (Conv2D)               (None, 14, 14, 256)   590080      activation_29[0][0]              
____________________________________________________________________________________________________
batch_normalization_30 (BatchNor (None, 14, 14, 256)   1024        conv2d_30[0][0]                  
____________________________________________________________________________________________________
activation_30 (Activation)       (None, 14, 14, 256)   0           batch_normalization_30[0][0]     
____________________________________________________________________________________________________
conv2d_31 (Conv2D)               (None, 14, 14, 1024)  263168      activation_30[0][0]              
____________________________________________________________________________________________________
add_10 (Add)                     (None, 14, 14, 1024)  0           add_9[0][0]                      
                                                                   conv2d_31[0][0]                  
____________________________________________________________________________________________________
batch_normalization_31 (BatchNor (None, 14, 14, 1024)  4096        add_10[0][0]                     
____________________________________________________________________________________________________
activation_31 (Activation)       (None, 14, 14, 1024)  0           batch_normalization_31[0][0]     
____________________________________________________________________________________________________
conv2d_32 (Conv2D)               (None, 14, 14, 256)   262400      activation_31[0][0]              
____________________________________________________________________________________________________
batch_normalization_32 (BatchNor (None, 14, 14, 256)   1024        conv2d_32[0][0]                  
____________________________________________________________________________________________________
activation_32 (Activation)       (None, 14, 14, 256)   0           batch_normalization_32[0][0]     
____________________________________________________________________________________________________
conv2d_33 (Conv2D)               (None, 14, 14, 256)   590080      activation_32[0][0]              
____________________________________________________________________________________________________
batch_normalization_33 (BatchNor (None, 14, 14, 256)   1024        conv2d_33[0][0]                  
____________________________________________________________________________________________________
activation_33 (Activation)       (None, 14, 14, 256)   0           batch_normalization_33[0][0]     
____________________________________________________________________________________________________
conv2d_34 (Conv2D)               (None, 14, 14, 1024)  263168      activation_33[0][0]              
____________________________________________________________________________________________________
add_11 (Add)                     (None, 14, 14, 1024)  0           add_10[0][0]                     
                                                                   conv2d_34[0][0]                  
____________________________________________________________________________________________________
batch_normalization_34 (BatchNor (None, 14, 14, 1024)  4096        add_11[0][0]                     
____________________________________________________________________________________________________
activation_34 (Activation)       (None, 14, 14, 1024)  0           batch_normalization_34[0][0]     
____________________________________________________________________________________________________
conv2d_35 (Conv2D)               (None, 14, 14, 256)   262400      activation_34[0][0]              
____________________________________________________________________________________________________
batch_normalization_35 (BatchNor (None, 14, 14, 256)   1024        conv2d_35[0][0]                  
____________________________________________________________________________________________________
activation_35 (Activation)       (None, 14, 14, 256)   0           batch_normalization_35[0][0]     
____________________________________________________________________________________________________
conv2d_36 (Conv2D)               (None, 14, 14, 256)   590080      activation_35[0][0]              
____________________________________________________________________________________________________
batch_normalization_36 (BatchNor (None, 14, 14, 256)   1024        conv2d_36[0][0]                  
____________________________________________________________________________________________________
activation_36 (Activation)       (None, 14, 14, 256)   0           batch_normalization_36[0][0]     
____________________________________________________________________________________________________
conv2d_37 (Conv2D)               (None, 14, 14, 1024)  263168      activation_36[0][0]              
____________________________________________________________________________________________________
add_12 (Add)                     (None, 14, 14, 1024)  0           add_11[0][0]                     
                                                                   conv2d_37[0][0]                  
____________________________________________________________________________________________________
batch_normalization_37 (BatchNor (None, 14, 14, 1024)  4096        add_12[0][0]                     
____________________________________________________________________________________________________
activation_37 (Activation)       (None, 14, 14, 1024)  0           batch_normalization_37[0][0]     
____________________________________________________________________________________________________
conv2d_38 (Conv2D)               (None, 14, 14, 256)   262400      activation_37[0][0]              
____________________________________________________________________________________________________
batch_normalization_38 (BatchNor (None, 14, 14, 256)   1024        conv2d_38[0][0]                  
____________________________________________________________________________________________________
activation_38 (Activation)       (None, 14, 14, 256)   0           batch_normalization_38[0][0]     
____________________________________________________________________________________________________
conv2d_39 (Conv2D)               (None, 14, 14, 256)   590080      activation_38[0][0]              
____________________________________________________________________________________________________
batch_normalization_39 (BatchNor (None, 14, 14, 256)   1024        conv2d_39[0][0]                  
____________________________________________________________________________________________________
activation_39 (Activation)       (None, 14, 14, 256)   0           batch_normalization_39[0][0]     
____________________________________________________________________________________________________
conv2d_40 (Conv2D)               (None, 14, 14, 1024)  263168      activation_39[0][0]              
____________________________________________________________________________________________________
add_13 (Add)                     (None, 14, 14, 1024)  0           add_12[0][0]                     
                                                                   conv2d_40[0][0]                  
____________________________________________________________________________________________________
batch_normalization_40 (BatchNor (None, 14, 14, 1024)  4096        add_13[0][0]                     
____________________________________________________________________________________________________
activation_40 (Activation)       (None, 14, 14, 1024)  0           batch_normalization_40[0][0]     
____________________________________________________________________________________________________
conv2d_41 (Conv2D)               (None, 14, 14, 256)   262400      activation_40[0][0]              
____________________________________________________________________________________________________
batch_normalization_41 (BatchNor (None, 14, 14, 256)   1024        conv2d_41[0][0]                  
____________________________________________________________________________________________________
activation_41 (Activation)       (None, 14, 14, 256)   0           batch_normalization_41[0][0]     
____________________________________________________________________________________________________
conv2d_42 (Conv2D)               (None, 14, 14, 256)   590080      activation_41[0][0]              
____________________________________________________________________________________________________
batch_normalization_42 (BatchNor (None, 14, 14, 256)   1024        conv2d_42[0][0]                  
____________________________________________________________________________________________________
activation_42 (Activation)       (None, 14, 14, 256)   0           batch_normalization_42[0][0]     
____________________________________________________________________________________________________
conv2d_43 (Conv2D)               (None, 14, 14, 1024)  263168      activation_42[0][0]              
____________________________________________________________________________________________________
add_14 (Add)                     (None, 14, 14, 1024)  0           add_13[0][0]                     
                                                                   conv2d_43[0][0]                  
____________________________________________________________________________________________________
batch_normalization_43 (BatchNor (None, 14, 14, 1024)  4096        add_14[0][0]                     
____________________________________________________________________________________________________
activation_43 (Activation)       (None, 14, 14, 1024)  0           batch_normalization_43[0][0]     
____________________________________________________________________________________________________
conv2d_44 (Conv2D)               (None, 14, 14, 256)   262400      activation_43[0][0]              
____________________________________________________________________________________________________
batch_normalization_44 (BatchNor (None, 14, 14, 256)   1024        conv2d_44[0][0]                  
____________________________________________________________________________________________________
activation_44 (Activation)       (None, 14, 14, 256)   0           batch_normalization_44[0][0]     
____________________________________________________________________________________________________
conv2d_45 (Conv2D)               (None, 14, 14, 256)   590080      activation_44[0][0]              
____________________________________________________________________________________________________
batch_normalization_45 (BatchNor (None, 14, 14, 256)   1024        conv2d_45[0][0]                  
____________________________________________________________________________________________________
activation_45 (Activation)       (None, 14, 14, 256)   0           batch_normalization_45[0][0]     
____________________________________________________________________________________________________
conv2d_46 (Conv2D)               (None, 14, 14, 1024)  263168      activation_45[0][0]              
____________________________________________________________________________________________________
add_15 (Add)                     (None, 14, 14, 1024)  0           add_14[0][0]                     
                                                                   conv2d_46[0][0]                  
____________________________________________________________________________________________________
batch_normalization_46 (BatchNor (None, 14, 14, 1024)  4096        add_15[0][0]                     
____________________________________________________________________________________________________
activation_46 (Activation)       (None, 14, 14, 1024)  0           batch_normalization_46[0][0]     
____________________________________________________________________________________________________
conv2d_47 (Conv2D)               (None, 14, 14, 256)   262400      activation_46[0][0]              
____________________________________________________________________________________________________
batch_normalization_47 (BatchNor (None, 14, 14, 256)   1024        conv2d_47[0][0]                  
____________________________________________________________________________________________________
activation_47 (Activation)       (None, 14, 14, 256)   0           batch_normalization_47[0][0]     
____________________________________________________________________________________________________
conv2d_48 (Conv2D)               (None, 14, 14, 256)   590080      activation_47[0][0]              
____________________________________________________________________________________________________
batch_normalization_48 (BatchNor (None, 14, 14, 256)   1024        conv2d_48[0][0]                  
____________________________________________________________________________________________________
activation_48 (Activation)       (None, 14, 14, 256)   0           batch_normalization_48[0][0]     
____________________________________________________________________________________________________
conv2d_49 (Conv2D)               (None, 14, 14, 1024)  263168      activation_48[0][0]              
____________________________________________________________________________________________________
add_16 (Add)                     (None, 14, 14, 1024)  0           add_15[0][0]                     
                                                                   conv2d_49[0][0]                  
____________________________________________________________________________________________________
batch_normalization_49 (BatchNor (None, 14, 14, 1024)  4096        add_16[0][0]                     
____________________________________________________________________________________________________
activation_49 (Activation)       (None, 14, 14, 1024)  0           batch_normalization_49[0][0]     
____________________________________________________________________________________________________
conv2d_50 (Conv2D)               (None, 14, 14, 256)   262400      activation_49[0][0]              
____________________________________________________________________________________________________
batch_normalization_50 (BatchNor (None, 14, 14, 256)   1024        conv2d_50[0][0]                  
____________________________________________________________________________________________________
activation_50 (Activation)       (None, 14, 14, 256)   0           batch_normalization_50[0][0]     
____________________________________________________________________________________________________
conv2d_51 (Conv2D)               (None, 14, 14, 256)   590080      activation_50[0][0]              
____________________________________________________________________________________________________
batch_normalization_51 (BatchNor (None, 14, 14, 256)   1024        conv2d_51[0][0]                  
____________________________________________________________________________________________________
activation_51 (Activation)       (None, 14, 14, 256)   0           batch_normalization_51[0][0]     
____________________________________________________________________________________________________
conv2d_52 (Conv2D)               (None, 14, 14, 1024)  263168      activation_51[0][0]              
____________________________________________________________________________________________________
add_17 (Add)                     (None, 14, 14, 1024)  0           add_16[0][0]                     
                                                                   conv2d_52[0][0]                  
____________________________________________________________________________________________________
batch_normalization_52 (BatchNor (None, 14, 14, 1024)  4096        add_17[0][0]                     
____________________________________________________________________________________________________
activation_52 (Activation)       (None, 14, 14, 1024)  0           batch_normalization_52[0][0]     
____________________________________________________________________________________________________
conv2d_53 (Conv2D)               (None, 14, 14, 256)   262400      activation_52[0][0]              
____________________________________________________________________________________________________
batch_normalization_53 (BatchNor (None, 14, 14, 256)   1024        conv2d_53[0][0]                  
____________________________________________________________________________________________________
activation_53 (Activation)       (None, 14, 14, 256)   0           batch_normalization_53[0][0]     
____________________________________________________________________________________________________
conv2d_54 (Conv2D)               (None, 14, 14, 256)   590080      activation_53[0][0]              
____________________________________________________________________________________________________
batch_normalization_54 (BatchNor (None, 14, 14, 256)   1024        conv2d_54[0][0]                  
____________________________________________________________________________________________________
activation_54 (Activation)       (None, 14, 14, 256)   0           batch_normalization_54[0][0]     
____________________________________________________________________________________________________
conv2d_55 (Conv2D)               (None, 14, 14, 1024)  263168      activation_54[0][0]              
____________________________________________________________________________________________________
add_18 (Add)                     (None, 14, 14, 1024)  0           add_17[0][0]                     
                                                                   conv2d_55[0][0]                  
____________________________________________________________________________________________________
batch_normalization_55 (BatchNor (None, 14, 14, 1024)  4096        add_18[0][0]                     
____________________________________________________________________________________________________
activation_55 (Activation)       (None, 14, 14, 1024)  0           batch_normalization_55[0][0]     
____________________________________________________________________________________________________
conv2d_56 (Conv2D)               (None, 14, 14, 256)   262400      activation_55[0][0]              
____________________________________________________________________________________________________
batch_normalization_56 (BatchNor (None, 14, 14, 256)   1024        conv2d_56[0][0]                  
____________________________________________________________________________________________________
activation_56 (Activation)       (None, 14, 14, 256)   0           batch_normalization_56[0][0]     
____________________________________________________________________________________________________
conv2d_57 (Conv2D)               (None, 14, 14, 256)   590080      activation_56[0][0]              
____________________________________________________________________________________________________
batch_normalization_57 (BatchNor (None, 14, 14, 256)   1024        conv2d_57[0][0]                  
____________________________________________________________________________________________________
activation_57 (Activation)       (None, 14, 14, 256)   0           batch_normalization_57[0][0]     
____________________________________________________________________________________________________
conv2d_58 (Conv2D)               (None, 14, 14, 1024)  263168      activation_57[0][0]              
____________________________________________________________________________________________________
add_19 (Add)                     (None, 14, 14, 1024)  0           add_18[0][0]                     
                                                                   conv2d_58[0][0]                  
____________________________________________________________________________________________________
batch_normalization_58 (BatchNor (None, 14, 14, 1024)  4096        add_19[0][0]                     
____________________________________________________________________________________________________
activation_58 (Activation)       (None, 14, 14, 1024)  0           batch_normalization_58[0][0]     
____________________________________________________________________________________________________
conv2d_59 (Conv2D)               (None, 14, 14, 256)   262400      activation_58[0][0]              
____________________________________________________________________________________________________
batch_normalization_59 (BatchNor (None, 14, 14, 256)   1024        conv2d_59[0][0]                  
____________________________________________________________________________________________________
activation_59 (Activation)       (None, 14, 14, 256)   0           batch_normalization_59[0][0]     
____________________________________________________________________________________________________
conv2d_60 (Conv2D)               (None, 14, 14, 256)   590080      activation_59[0][0]              
____________________________________________________________________________________________________
batch_normalization_60 (BatchNor (None, 14, 14, 256)   1024        conv2d_60[0][0]                  
____________________________________________________________________________________________________
activation_60 (Activation)       (None, 14, 14, 256)   0           batch_normalization_60[0][0]     
____________________________________________________________________________________________________
conv2d_61 (Conv2D)               (None, 14, 14, 1024)  263168      activation_60[0][0]              
____________________________________________________________________________________________________
add_20 (Add)                     (None, 14, 14, 1024)  0           add_19[0][0]                     
                                                                   conv2d_61[0][0]                  
____________________________________________________________________________________________________
batch_normalization_61 (BatchNor (None, 14, 14, 1024)  4096        add_20[0][0]                     
____________________________________________________________________________________________________
activation_61 (Activation)       (None, 14, 14, 1024)  0           batch_normalization_61[0][0]     
____________________________________________________________________________________________________
conv2d_62 (Conv2D)               (None, 14, 14, 256)   262400      activation_61[0][0]              
____________________________________________________________________________________________________
batch_normalization_62 (BatchNor (None, 14, 14, 256)   1024        conv2d_62[0][0]                  
____________________________________________________________________________________________________
activation_62 (Activation)       (None, 14, 14, 256)   0           batch_normalization_62[0][0]     
____________________________________________________________________________________________________
conv2d_63 (Conv2D)               (None, 14, 14, 256)   590080      activation_62[0][0]              
____________________________________________________________________________________________________
batch_normalization_63 (BatchNor (None, 14, 14, 256)   1024        conv2d_63[0][0]                  
____________________________________________________________________________________________________
activation_63 (Activation)       (None, 14, 14, 256)   0           batch_normalization_63[0][0]     
____________________________________________________________________________________________________
conv2d_64 (Conv2D)               (None, 14, 14, 1024)  263168      activation_63[0][0]              
____________________________________________________________________________________________________
add_21 (Add)                     (None, 14, 14, 1024)  0           add_20[0][0]                     
                                                                   conv2d_64[0][0]                  
____________________________________________________________________________________________________
batch_normalization_64 (BatchNor (None, 14, 14, 1024)  4096        add_21[0][0]                     
____________________________________________________________________________________________________
activation_64 (Activation)       (None, 14, 14, 1024)  0           batch_normalization_64[0][0]     
____________________________________________________________________________________________________
conv2d_65 (Conv2D)               (None, 14, 14, 256)   262400      activation_64[0][0]              
____________________________________________________________________________________________________
batch_normalization_65 (BatchNor (None, 14, 14, 256)   1024        conv2d_65[0][0]                  
____________________________________________________________________________________________________
activation_65 (Activation)       (None, 14, 14, 256)   0           batch_normalization_65[0][0]     
____________________________________________________________________________________________________
conv2d_66 (Conv2D)               (None, 14, 14, 256)   590080      activation_65[0][0]              
____________________________________________________________________________________________________
batch_normalization_66 (BatchNor (None, 14, 14, 256)   1024        conv2d_66[0][0]                  
____________________________________________________________________________________________________
activation_66 (Activation)       (None, 14, 14, 256)   0           batch_normalization_66[0][0]     
____________________________________________________________________________________________________
conv2d_67 (Conv2D)               (None, 14, 14, 1024)  263168      activation_66[0][0]              
____________________________________________________________________________________________________
add_22 (Add)                     (None, 14, 14, 1024)  0           add_21[0][0]                     
                                                                   conv2d_67[0][0]                  
____________________________________________________________________________________________________
batch_normalization_67 (BatchNor (None, 14, 14, 1024)  4096        add_22[0][0]                     
____________________________________________________________________________________________________
activation_67 (Activation)       (None, 14, 14, 1024)  0           batch_normalization_67[0][0]     
____________________________________________________________________________________________________
conv2d_68 (Conv2D)               (None, 14, 14, 256)   262400      activation_67[0][0]              
____________________________________________________________________________________________________
batch_normalization_68 (BatchNor (None, 14, 14, 256)   1024        conv2d_68[0][0]                  
____________________________________________________________________________________________________
activation_68 (Activation)       (None, 14, 14, 256)   0           batch_normalization_68[0][0]     
____________________________________________________________________________________________________
conv2d_69 (Conv2D)               (None, 14, 14, 256)   590080      activation_68[0][0]              
____________________________________________________________________________________________________
batch_normalization_69 (BatchNor (None, 14, 14, 256)   1024        conv2d_69[0][0]                  
____________________________________________________________________________________________________
activation_69 (Activation)       (None, 14, 14, 256)   0           batch_normalization_69[0][0]     
____________________________________________________________________________________________________
conv2d_70 (Conv2D)               (None, 14, 14, 1024)  263168      activation_69[0][0]              
____________________________________________________________________________________________________
add_23 (Add)                     (None, 14, 14, 1024)  0           add_22[0][0]                     
                                                                   conv2d_70[0][0]                  
____________________________________________________________________________________________________
batch_normalization_70 (BatchNor (None, 14, 14, 1024)  4096        add_23[0][0]                     
____________________________________________________________________________________________________
activation_70 (Activation)       (None, 14, 14, 1024)  0           batch_normalization_70[0][0]     
____________________________________________________________________________________________________
conv2d_71 (Conv2D)               (None, 14, 14, 256)   262400      activation_70[0][0]              
____________________________________________________________________________________________________
batch_normalization_71 (BatchNor (None, 14, 14, 256)   1024        conv2d_71[0][0]                  
____________________________________________________________________________________________________
activation_71 (Activation)       (None, 14, 14, 256)   0           batch_normalization_71[0][0]     
____________________________________________________________________________________________________
conv2d_72 (Conv2D)               (None, 14, 14, 256)   590080      activation_71[0][0]              
____________________________________________________________________________________________________
batch_normalization_72 (BatchNor (None, 14, 14, 256)   1024        conv2d_72[0][0]                  
____________________________________________________________________________________________________
activation_72 (Activation)       (None, 14, 14, 256)   0           batch_normalization_72[0][0]     
____________________________________________________________________________________________________
conv2d_73 (Conv2D)               (None, 14, 14, 1024)  263168      activation_72[0][0]              
____________________________________________________________________________________________________
add_24 (Add)                     (None, 14, 14, 1024)  0           add_23[0][0]                     
                                                                   conv2d_73[0][0]                  
____________________________________________________________________________________________________
batch_normalization_73 (BatchNor (None, 14, 14, 1024)  4096        add_24[0][0]                     
____________________________________________________________________________________________________
activation_73 (Activation)       (None, 14, 14, 1024)  0           batch_normalization_73[0][0]     
____________________________________________________________________________________________________
conv2d_74 (Conv2D)               (None, 14, 14, 256)   262400      activation_73[0][0]              
____________________________________________________________________________________________________
batch_normalization_74 (BatchNor (None, 14, 14, 256)   1024        conv2d_74[0][0]                  
____________________________________________________________________________________________________
activation_74 (Activation)       (None, 14, 14, 256)   0           batch_normalization_74[0][0]     
____________________________________________________________________________________________________
conv2d_75 (Conv2D)               (None, 14, 14, 256)   590080      activation_74[0][0]              
____________________________________________________________________________________________________
batch_normalization_75 (BatchNor (None, 14, 14, 256)   1024        conv2d_75[0][0]                  
____________________________________________________________________________________________________
activation_75 (Activation)       (None, 14, 14, 256)   0           batch_normalization_75[0][0]     
____________________________________________________________________________________________________
conv2d_76 (Conv2D)               (None, 14, 14, 1024)  263168      activation_75[0][0]              
____________________________________________________________________________________________________
add_25 (Add)                     (None, 14, 14, 1024)  0           add_24[0][0]                     
                                                                   conv2d_76[0][0]                  
____________________________________________________________________________________________________
batch_normalization_76 (BatchNor (None, 14, 14, 1024)  4096        add_25[0][0]                     
____________________________________________________________________________________________________
activation_76 (Activation)       (None, 14, 14, 1024)  0           batch_normalization_76[0][0]     
____________________________________________________________________________________________________
conv2d_77 (Conv2D)               (None, 14, 14, 256)   262400      activation_76[0][0]              
____________________________________________________________________________________________________
batch_normalization_77 (BatchNor (None, 14, 14, 256)   1024        conv2d_77[0][0]                  
____________________________________________________________________________________________________
activation_77 (Activation)       (None, 14, 14, 256)   0           batch_normalization_77[0][0]     
____________________________________________________________________________________________________
conv2d_78 (Conv2D)               (None, 14, 14, 256)   590080      activation_77[0][0]              
____________________________________________________________________________________________________
batch_normalization_78 (BatchNor (None, 14, 14, 256)   1024        conv2d_78[0][0]                  
____________________________________________________________________________________________________
activation_78 (Activation)       (None, 14, 14, 256)   0           batch_normalization_78[0][0]     
____________________________________________________________________________________________________
conv2d_79 (Conv2D)               (None, 14, 14, 1024)  263168      activation_78[0][0]              
____________________________________________________________________________________________________
add_26 (Add)                     (None, 14, 14, 1024)  0           add_25[0][0]                     
                                                                   conv2d_79[0][0]                  
____________________________________________________________________________________________________
batch_normalization_79 (BatchNor (None, 14, 14, 1024)  4096        add_26[0][0]                     
____________________________________________________________________________________________________
activation_79 (Activation)       (None, 14, 14, 1024)  0           batch_normalization_79[0][0]     
____________________________________________________________________________________________________
conv2d_80 (Conv2D)               (None, 14, 14, 256)   262400      activation_79[0][0]              
____________________________________________________________________________________________________
batch_normalization_80 (BatchNor (None, 14, 14, 256)   1024        conv2d_80[0][0]                  
____________________________________________________________________________________________________
activation_80 (Activation)       (None, 14, 14, 256)   0           batch_normalization_80[0][0]     
____________________________________________________________________________________________________
conv2d_81 (Conv2D)               (None, 14, 14, 256)   590080      activation_80[0][0]              
____________________________________________________________________________________________________
batch_normalization_81 (BatchNor (None, 14, 14, 256)   1024        conv2d_81[0][0]                  
____________________________________________________________________________________________________
activation_81 (Activation)       (None, 14, 14, 256)   0           batch_normalization_81[0][0]     
____________________________________________________________________________________________________
conv2d_82 (Conv2D)               (None, 14, 14, 1024)  263168      activation_81[0][0]              
____________________________________________________________________________________________________
add_27 (Add)                     (None, 14, 14, 1024)  0           add_26[0][0]                     
                                                                   conv2d_82[0][0]                  
____________________________________________________________________________________________________
batch_normalization_82 (BatchNor (None, 14, 14, 1024)  4096        add_27[0][0]                     
____________________________________________________________________________________________________
activation_82 (Activation)       (None, 14, 14, 1024)  0           batch_normalization_82[0][0]     
____________________________________________________________________________________________________
conv2d_83 (Conv2D)               (None, 14, 14, 256)   262400      activation_82[0][0]              
____________________________________________________________________________________________________
batch_normalization_83 (BatchNor (None, 14, 14, 256)   1024        conv2d_83[0][0]                  
____________________________________________________________________________________________________
activation_83 (Activation)       (None, 14, 14, 256)   0           batch_normalization_83[0][0]     
____________________________________________________________________________________________________
conv2d_84 (Conv2D)               (None, 14, 14, 256)   590080      activation_83[0][0]              
____________________________________________________________________________________________________
batch_normalization_84 (BatchNor (None, 14, 14, 256)   1024        conv2d_84[0][0]                  
____________________________________________________________________________________________________
activation_84 (Activation)       (None, 14, 14, 256)   0           batch_normalization_84[0][0]     
____________________________________________________________________________________________________
conv2d_85 (Conv2D)               (None, 14, 14, 1024)  263168      activation_84[0][0]              
____________________________________________________________________________________________________
add_28 (Add)                     (None, 14, 14, 1024)  0           add_27[0][0]                     
                                                                   conv2d_85[0][0]                  
____________________________________________________________________________________________________
batch_normalization_85 (BatchNor (None, 14, 14, 1024)  4096        add_28[0][0]                     
____________________________________________________________________________________________________
activation_85 (Activation)       (None, 14, 14, 1024)  0           batch_normalization_85[0][0]     
____________________________________________________________________________________________________
conv2d_86 (Conv2D)               (None, 14, 14, 256)   262400      activation_85[0][0]              
____________________________________________________________________________________________________
batch_normalization_86 (BatchNor (None, 14, 14, 256)   1024        conv2d_86[0][0]                  
____________________________________________________________________________________________________
activation_86 (Activation)       (None, 14, 14, 256)   0           batch_normalization_86[0][0]     
____________________________________________________________________________________________________
conv2d_87 (Conv2D)               (None, 14, 14, 256)   590080      activation_86[0][0]              
____________________________________________________________________________________________________
batch_normalization_87 (BatchNor (None, 14, 14, 256)   1024        conv2d_87[0][0]                  
____________________________________________________________________________________________________
activation_87 (Activation)       (None, 14, 14, 256)   0           batch_normalization_87[0][0]     
____________________________________________________________________________________________________
conv2d_88 (Conv2D)               (None, 14, 14, 1024)  263168      activation_87[0][0]              
____________________________________________________________________________________________________
add_29 (Add)                     (None, 14, 14, 1024)  0           add_28[0][0]                     
                                                                   conv2d_88[0][0]                  
____________________________________________________________________________________________________
batch_normalization_88 (BatchNor (None, 14, 14, 1024)  4096        add_29[0][0]                     
____________________________________________________________________________________________________
activation_88 (Activation)       (None, 14, 14, 1024)  0           batch_normalization_88[0][0]     
____________________________________________________________________________________________________
conv2d_89 (Conv2D)               (None, 14, 14, 256)   262400      activation_88[0][0]              
____________________________________________________________________________________________________
batch_normalization_89 (BatchNor (None, 14, 14, 256)   1024        conv2d_89[0][0]                  
____________________________________________________________________________________________________
activation_89 (Activation)       (None, 14, 14, 256)   0           batch_normalization_89[0][0]     
____________________________________________________________________________________________________
conv2d_90 (Conv2D)               (None, 14, 14, 256)   590080      activation_89[0][0]              
____________________________________________________________________________________________________
batch_normalization_90 (BatchNor (None, 14, 14, 256)   1024        conv2d_90[0][0]                  
____________________________________________________________________________________________________
activation_90 (Activation)       (None, 14, 14, 256)   0           batch_normalization_90[0][0]     
____________________________________________________________________________________________________
conv2d_91 (Conv2D)               (None, 14, 14, 1024)  263168      activation_90[0][0]              
____________________________________________________________________________________________________
add_30 (Add)                     (None, 14, 14, 1024)  0           add_29[0][0]                     
                                                                   conv2d_91[0][0]                  
____________________________________________________________________________________________________
batch_normalization_91 (BatchNor (None, 14, 14, 1024)  4096        add_30[0][0]                     
____________________________________________________________________________________________________
activation_91 (Activation)       (None, 14, 14, 1024)  0           batch_normalization_91[0][0]     
____________________________________________________________________________________________________
conv2d_92 (Conv2D)               (None, 14, 14, 256)   262400      activation_91[0][0]              
____________________________________________________________________________________________________
batch_normalization_92 (BatchNor (None, 14, 14, 256)   1024        conv2d_92[0][0]                  
____________________________________________________________________________________________________
activation_92 (Activation)       (None, 14, 14, 256)   0           batch_normalization_92[0][0]     
____________________________________________________________________________________________________
conv2d_93 (Conv2D)               (None, 14, 14, 256)   590080      activation_92[0][0]              
____________________________________________________________________________________________________
batch_normalization_93 (BatchNor (None, 14, 14, 256)   1024        conv2d_93[0][0]                  
____________________________________________________________________________________________________
activation_93 (Activation)       (None, 14, 14, 256)   0           batch_normalization_93[0][0]     
____________________________________________________________________________________________________
conv2d_94 (Conv2D)               (None, 14, 14, 1024)  263168      activation_93[0][0]              
____________________________________________________________________________________________________
add_31 (Add)                     (None, 14, 14, 1024)  0           add_30[0][0]                     
                                                                   conv2d_94[0][0]                  
____________________________________________________________________________________________________
batch_normalization_94 (BatchNor (None, 14, 14, 1024)  4096        add_31[0][0]                     
____________________________________________________________________________________________________
activation_94 (Activation)       (None, 14, 14, 1024)  0           batch_normalization_94[0][0]     
____________________________________________________________________________________________________
conv2d_95 (Conv2D)               (None, 14, 14, 256)   262400      activation_94[0][0]              
____________________________________________________________________________________________________
batch_normalization_95 (BatchNor (None, 14, 14, 256)   1024        conv2d_95[0][0]                  
____________________________________________________________________________________________________
activation_95 (Activation)       (None, 14, 14, 256)   0           batch_normalization_95[0][0]     
____________________________________________________________________________________________________
conv2d_96 (Conv2D)               (None, 14, 14, 256)   590080      activation_95[0][0]              
____________________________________________________________________________________________________
batch_normalization_96 (BatchNor (None, 14, 14, 256)   1024        conv2d_96[0][0]                  
____________________________________________________________________________________________________
activation_96 (Activation)       (None, 14, 14, 256)   0           batch_normalization_96[0][0]     
____________________________________________________________________________________________________
conv2d_97 (Conv2D)               (None, 14, 14, 1024)  263168      activation_96[0][0]              
____________________________________________________________________________________________________
add_32 (Add)                     (None, 14, 14, 1024)  0           add_31[0][0]                     
                                                                   conv2d_97[0][0]                  
____________________________________________________________________________________________________
batch_normalization_97 (BatchNor (None, 14, 14, 1024)  4096        add_32[0][0]                     
____________________________________________________________________________________________________
activation_97 (Activation)       (None, 14, 14, 1024)  0           batch_normalization_97[0][0]     
____________________________________________________________________________________________________
conv2d_98 (Conv2D)               (None, 14, 14, 256)   262400      activation_97[0][0]              
____________________________________________________________________________________________________
batch_normalization_98 (BatchNor (None, 14, 14, 256)   1024        conv2d_98[0][0]                  
____________________________________________________________________________________________________
activation_98 (Activation)       (None, 14, 14, 256)   0           batch_normalization_98[0][0]     
____________________________________________________________________________________________________
conv2d_99 (Conv2D)               (None, 14, 14, 256)   590080      activation_98[0][0]              
____________________________________________________________________________________________________
batch_normalization_99 (BatchNor (None, 14, 14, 256)   1024        conv2d_99[0][0]                  
____________________________________________________________________________________________________
activation_99 (Activation)       (None, 14, 14, 256)   0           batch_normalization_99[0][0]     
____________________________________________________________________________________________________
conv2d_100 (Conv2D)              (None, 14, 14, 1024)  263168      activation_99[0][0]              
____________________________________________________________________________________________________
add_33 (Add)                     (None, 14, 14, 1024)  0           add_32[0][0]                     
                                                                   conv2d_100[0][0]                 
____________________________________________________________________________________________________
batch_normalization_100 (BatchNo (None, 14, 14, 1024)  4096        add_33[0][0]                     
____________________________________________________________________________________________________
activation_100 (Activation)      (None, 14, 14, 1024)  0           batch_normalization_100[0][0]    
____________________________________________________________________________________________________
conv2d_101 (Conv2D)              (None, 14, 14, 256)   262400      activation_100[0][0]             
____________________________________________________________________________________________________
batch_normalization_101 (BatchNo (None, 14, 14, 256)   1024        conv2d_101[0][0]                 
____________________________________________________________________________________________________
activation_101 (Activation)      (None, 14, 14, 256)   0           batch_normalization_101[0][0]    
____________________________________________________________________________________________________
conv2d_102 (Conv2D)              (None, 14, 14, 256)   590080      activation_101[0][0]             
____________________________________________________________________________________________________
batch_normalization_102 (BatchNo (None, 14, 14, 256)   1024        conv2d_102[0][0]                 
____________________________________________________________________________________________________
activation_102 (Activation)      (None, 14, 14, 256)   0           batch_normalization_102[0][0]    
____________________________________________________________________________________________________
conv2d_103 (Conv2D)              (None, 14, 14, 1024)  263168      activation_102[0][0]             
____________________________________________________________________________________________________
add_34 (Add)                     (None, 14, 14, 1024)  0           add_33[0][0]                     
                                                                   conv2d_103[0][0]                 
____________________________________________________________________________________________________
batch_normalization_103 (BatchNo (None, 14, 14, 1024)  4096        add_34[0][0]                     
____________________________________________________________________________________________________
activation_103 (Activation)      (None, 14, 14, 1024)  0           batch_normalization_103[0][0]    
____________________________________________________________________________________________________
conv2d_104 (Conv2D)              (None, 14, 14, 256)   262400      activation_103[0][0]             
____________________________________________________________________________________________________
batch_normalization_104 (BatchNo (None, 14, 14, 256)   1024        conv2d_104[0][0]                 
____________________________________________________________________________________________________
activation_104 (Activation)      (None, 14, 14, 256)   0           batch_normalization_104[0][0]    
____________________________________________________________________________________________________
conv2d_105 (Conv2D)              (None, 14, 14, 256)   590080      activation_104[0][0]             
____________________________________________________________________________________________________
batch_normalization_105 (BatchNo (None, 14, 14, 256)   1024        conv2d_105[0][0]                 
____________________________________________________________________________________________________
activation_105 (Activation)      (None, 14, 14, 256)   0           batch_normalization_105[0][0]    
____________________________________________________________________________________________________
conv2d_106 (Conv2D)              (None, 14, 14, 1024)  263168      activation_105[0][0]             
____________________________________________________________________________________________________
add_35 (Add)                     (None, 14, 14, 1024)  0           add_34[0][0]                     
                                                                   conv2d_106[0][0]                 
____________________________________________________________________________________________________
batch_normalization_106 (BatchNo (None, 14, 14, 1024)  4096        add_35[0][0]                     
____________________________________________________________________________________________________
activation_106 (Activation)      (None, 14, 14, 1024)  0           batch_normalization_106[0][0]    
____________________________________________________________________________________________________
conv2d_107 (Conv2D)              (None, 14, 14, 256)   262400      activation_106[0][0]             
____________________________________________________________________________________________________
batch_normalization_107 (BatchNo (None, 14, 14, 256)   1024        conv2d_107[0][0]                 
____________________________________________________________________________________________________
activation_107 (Activation)      (None, 14, 14, 256)   0           batch_normalization_107[0][0]    
____________________________________________________________________________________________________
conv2d_108 (Conv2D)              (None, 14, 14, 256)   590080      activation_107[0][0]             
____________________________________________________________________________________________________
batch_normalization_108 (BatchNo (None, 14, 14, 256)   1024        conv2d_108[0][0]                 
____________________________________________________________________________________________________
activation_108 (Activation)      (None, 14, 14, 256)   0           batch_normalization_108[0][0]    
____________________________________________________________________________________________________
conv2d_109 (Conv2D)              (None, 14, 14, 1024)  263168      activation_108[0][0]             
____________________________________________________________________________________________________
add_36 (Add)                     (None, 14, 14, 1024)  0           add_35[0][0]                     
                                                                   conv2d_109[0][0]                 
____________________________________________________________________________________________________
batch_normalization_109 (BatchNo (None, 14, 14, 1024)  4096        add_36[0][0]                     
____________________________________________________________________________________________________
activation_109 (Activation)      (None, 14, 14, 1024)  0           batch_normalization_109[0][0]    
____________________________________________________________________________________________________
conv2d_110 (Conv2D)              (None, 14, 14, 256)   262400      activation_109[0][0]             
____________________________________________________________________________________________________
batch_normalization_110 (BatchNo (None, 14, 14, 256)   1024        conv2d_110[0][0]                 
____________________________________________________________________________________________________
activation_110 (Activation)      (None, 14, 14, 256)   0           batch_normalization_110[0][0]    
____________________________________________________________________________________________________
conv2d_111 (Conv2D)              (None, 14, 14, 256)   590080      activation_110[0][0]             
____________________________________________________________________________________________________
batch_normalization_111 (BatchNo (None, 14, 14, 256)   1024        conv2d_111[0][0]                 
____________________________________________________________________________________________________
activation_111 (Activation)      (None, 14, 14, 256)   0           batch_normalization_111[0][0]    
____________________________________________________________________________________________________
conv2d_112 (Conv2D)              (None, 14, 14, 1024)  263168      activation_111[0][0]             
____________________________________________________________________________________________________
add_37 (Add)                     (None, 14, 14, 1024)  0           add_36[0][0]                     
                                                                   conv2d_112[0][0]                 
____________________________________________________________________________________________________
batch_normalization_112 (BatchNo (None, 14, 14, 1024)  4096        add_37[0][0]                     
____________________________________________________________________________________________________
activation_112 (Activation)      (None, 14, 14, 1024)  0           batch_normalization_112[0][0]    
____________________________________________________________________________________________________
conv2d_113 (Conv2D)              (None, 14, 14, 256)   262400      activation_112[0][0]             
____________________________________________________________________________________________________
batch_normalization_113 (BatchNo (None, 14, 14, 256)   1024        conv2d_113[0][0]                 
____________________________________________________________________________________________________
activation_113 (Activation)      (None, 14, 14, 256)   0           batch_normalization_113[0][0]    
____________________________________________________________________________________________________
conv2d_114 (Conv2D)              (None, 14, 14, 256)   590080      activation_113[0][0]             
____________________________________________________________________________________________________
batch_normalization_114 (BatchNo (None, 14, 14, 256)   1024        conv2d_114[0][0]                 
____________________________________________________________________________________________________
activation_114 (Activation)      (None, 14, 14, 256)   0           batch_normalization_114[0][0]    
____________________________________________________________________________________________________
conv2d_115 (Conv2D)              (None, 14, 14, 1024)  263168      activation_114[0][0]             
____________________________________________________________________________________________________
add_38 (Add)                     (None, 14, 14, 1024)  0           add_37[0][0]                     
                                                                   conv2d_115[0][0]                 
____________________________________________________________________________________________________
batch_normalization_115 (BatchNo (None, 14, 14, 1024)  4096        add_38[0][0]                     
____________________________________________________________________________________________________
activation_115 (Activation)      (None, 14, 14, 1024)  0           batch_normalization_115[0][0]    
____________________________________________________________________________________________________
conv2d_116 (Conv2D)              (None, 14, 14, 256)   262400      activation_115[0][0]             
____________________________________________________________________________________________________
batch_normalization_116 (BatchNo (None, 14, 14, 256)   1024        conv2d_116[0][0]                 
____________________________________________________________________________________________________
activation_116 (Activation)      (None, 14, 14, 256)   0           batch_normalization_116[0][0]    
____________________________________________________________________________________________________
conv2d_117 (Conv2D)              (None, 14, 14, 256)   590080      activation_116[0][0]             
____________________________________________________________________________________________________
batch_normalization_117 (BatchNo (None, 14, 14, 256)   1024        conv2d_117[0][0]                 
____________________________________________________________________________________________________
activation_117 (Activation)      (None, 14, 14, 256)   0           batch_normalization_117[0][0]    
____________________________________________________________________________________________________
conv2d_118 (Conv2D)              (None, 14, 14, 1024)  263168      activation_117[0][0]             
____________________________________________________________________________________________________
add_39 (Add)                     (None, 14, 14, 1024)  0           add_38[0][0]                     
                                                                   conv2d_118[0][0]                 
____________________________________________________________________________________________________
batch_normalization_118 (BatchNo (None, 14, 14, 1024)  4096        add_39[0][0]                     
____________________________________________________________________________________________________
activation_118 (Activation)      (None, 14, 14, 1024)  0           batch_normalization_118[0][0]    
____________________________________________________________________________________________________
conv2d_119 (Conv2D)              (None, 14, 14, 256)   262400      activation_118[0][0]             
____________________________________________________________________________________________________
batch_normalization_119 (BatchNo (None, 14, 14, 256)   1024        conv2d_119[0][0]                 
____________________________________________________________________________________________________
activation_119 (Activation)      (None, 14, 14, 256)   0           batch_normalization_119[0][0]    
____________________________________________________________________________________________________
conv2d_120 (Conv2D)              (None, 14, 14, 256)   590080      activation_119[0][0]             
____________________________________________________________________________________________________
batch_normalization_120 (BatchNo (None, 14, 14, 256)   1024        conv2d_120[0][0]                 
____________________________________________________________________________________________________
activation_120 (Activation)      (None, 14, 14, 256)   0           batch_normalization_120[0][0]    
____________________________________________________________________________________________________
conv2d_121 (Conv2D)              (None, 14, 14, 1024)  263168      activation_120[0][0]             
____________________________________________________________________________________________________
add_40 (Add)                     (None, 14, 14, 1024)  0           add_39[0][0]                     
                                                                   conv2d_121[0][0]                 
____________________________________________________________________________________________________
batch_normalization_121 (BatchNo (None, 14, 14, 1024)  4096        add_40[0][0]                     
____________________________________________________________________________________________________
activation_121 (Activation)      (None, 14, 14, 1024)  0           batch_normalization_121[0][0]    
____________________________________________________________________________________________________
conv2d_122 (Conv2D)              (None, 7, 7, 512)     524800      activation_121[0][0]             
____________________________________________________________________________________________________
batch_normalization_122 (BatchNo (None, 7, 7, 512)     2048        conv2d_122[0][0]                 
____________________________________________________________________________________________________
activation_122 (Activation)      (None, 7, 7, 512)     0           batch_normalization_122[0][0]    
____________________________________________________________________________________________________
conv2d_123 (Conv2D)              (None, 7, 7, 512)     2359808     activation_122[0][0]             
____________________________________________________________________________________________________
batch_normalization_123 (BatchNo (None, 7, 7, 512)     2048        conv2d_123[0][0]                 
____________________________________________________________________________________________________
activation_123 (Activation)      (None, 7, 7, 512)     0           batch_normalization_123[0][0]    
____________________________________________________________________________________________________
conv2d_125 (Conv2D)              (None, 7, 7, 2048)    2099200     add_40[0][0]                     
____________________________________________________________________________________________________
conv2d_124 (Conv2D)              (None, 7, 7, 2048)    1050624     activation_123[0][0]             
____________________________________________________________________________________________________
add_41 (Add)                     (None, 7, 7, 2048)    0           conv2d_125[0][0]                 
                                                                   conv2d_124[0][0]                 
____________________________________________________________________________________________________
batch_normalization_124 (BatchNo (None, 7, 7, 2048)    8192        add_41[0][0]                     
____________________________________________________________________________________________________
activation_124 (Activation)      (None, 7, 7, 2048)    0           batch_normalization_124[0][0]    
____________________________________________________________________________________________________
conv2d_126 (Conv2D)              (None, 7, 7, 512)     1049088     activation_124[0][0]             
____________________________________________________________________________________________________
batch_normalization_125 (BatchNo (None, 7, 7, 512)     2048        conv2d_126[0][0]                 
____________________________________________________________________________________________________
activation_125 (Activation)      (None, 7, 7, 512)     0           batch_normalization_125[0][0]    
____________________________________________________________________________________________________
conv2d_127 (Conv2D)              (None, 7, 7, 512)     2359808     activation_125[0][0]             
____________________________________________________________________________________________________
batch_normalization_126 (BatchNo (None, 7, 7, 512)     2048        conv2d_127[0][0]                 
____________________________________________________________________________________________________
activation_126 (Activation)      (None, 7, 7, 512)     0           batch_normalization_126[0][0]    
____________________________________________________________________________________________________
conv2d_128 (Conv2D)              (None, 7, 7, 2048)    1050624     activation_126[0][0]             
____________________________________________________________________________________________________
add_42 (Add)                     (None, 7, 7, 2048)    0           add_41[0][0]                     
                                                                   conv2d_128[0][0]                 
____________________________________________________________________________________________________
batch_normalization_127 (BatchNo (None, 7, 7, 2048)    8192        add_42[0][0]                     
____________________________________________________________________________________________________
activation_127 (Activation)      (None, 7, 7, 2048)    0           batch_normalization_127[0][0]    
____________________________________________________________________________________________________
conv2d_129 (Conv2D)              (None, 7, 7, 512)     1049088     activation_127[0][0]             
____________________________________________________________________________________________________
batch_normalization_128 (BatchNo (None, 7, 7, 512)     2048        conv2d_129[0][0]                 
____________________________________________________________________________________________________
activation_128 (Activation)      (None, 7, 7, 512)     0           batch_normalization_128[0][0]    
____________________________________________________________________________________________________
conv2d_130 (Conv2D)              (None, 7, 7, 512)     2359808     activation_128[0][0]             
____________________________________________________________________________________________________
batch_normalization_129 (BatchNo (None, 7, 7, 512)     2048        conv2d_130[0][0]                 
____________________________________________________________________________________________________
activation_129 (Activation)      (None, 7, 7, 512)     0           batch_normalization_129[0][0]    
____________________________________________________________________________________________________
conv2d_131 (Conv2D)              (None, 7, 7, 2048)    1050624     activation_129[0][0]             
____________________________________________________________________________________________________
add_43 (Add)                     (None, 7, 7, 2048)    0           add_42[0][0]                     
                                                                   conv2d_131[0][0]                 
____________________________________________________________________________________________________
batch_normalization_130 (BatchNo (None, 7, 7, 2048)    8192        add_43[0][0]                     
____________________________________________________________________________________________________
activation_130 (Activation)      (None, 7, 7, 2048)    0           batch_normalization_130[0][0]    
____________________________________________________________________________________________________
average_pooling2d_1 (AveragePool (None, 1, 1, 2048)    0           activation_130[0][0]             
____________________________________________________________________________________________________
flatten_1 (Flatten)              (None, 2048)          0           average_pooling2d_1[0][0]        
____________________________________________________________________________________________________
dense_1 (Dense)                  (None, 3)             6147        flatten_1[0][0]                  
====================================================================================================
Total params: 56,906,755
Trainable params: 56,770,563
Non-trainable params: 136,192
____________________________________________________________________________________________________
