____________________________________________________________________________________________________
Layer (type)                     Output Shape          Param #     Connected to                     
====================================================================================================
input_2 (InputLayer)             (None, 224, 224, 3)   0                                            
____________________________________________________________________________________________________
conv2d_133 (Conv2D)              (None, 112, 112, 64)  9472        input_2[0][0]                    
____________________________________________________________________________________________________
batch_normalization_131 (BatchNo (None, 112, 112, 64)  256         conv2d_133[0][0]                 
____________________________________________________________________________________________________
activation_131 (Activation)      (None, 112, 112, 64)  0           batch_normalization_131[0][0]    
____________________________________________________________________________________________________
max_pooling2d_1 (MaxPooling2D)   (None, 56, 56, 64)    0           activation_131[0][0]             
____________________________________________________________________________________________________
conv2d_134 (Conv2D)              (None, 56, 56, 64)    4160        max_pooling2d_1[0][0]            
____________________________________________________________________________________________________
batch_normalization_132 (BatchNo (None, 56, 56, 64)    256         conv2d_134[0][0]                 
____________________________________________________________________________________________________
activation_132 (Activation)      (None, 56, 56, 64)    0           batch_normalization_132[0][0]    
____________________________________________________________________________________________________
conv2d_135 (Conv2D)              (None, 56, 56, 64)    36928       activation_132[0][0]             
____________________________________________________________________________________________________
batch_normalization_133 (BatchNo (None, 56, 56, 64)    256         conv2d_135[0][0]                 
____________________________________________________________________________________________________
activation_133 (Activation)      (None, 56, 56, 64)    0           batch_normalization_133[0][0]    
____________________________________________________________________________________________________
conv2d_137 (Conv2D)              (None, 56, 56, 256)   16640       max_pooling2d_1[0][0]            
____________________________________________________________________________________________________
conv2d_136 (Conv2D)              (None, 56, 56, 256)   16640       activation_133[0][0]             
____________________________________________________________________________________________________
add_44 (Add)                     (None, 56, 56, 256)   0           conv2d_137[0][0]                 
                                                                   conv2d_136[0][0]                 
____________________________________________________________________________________________________
batch_normalization_134 (BatchNo (None, 56, 56, 256)   1024        add_44[0][0]                     
____________________________________________________________________________________________________
activation_134 (Activation)      (None, 56, 56, 256)   0           batch_normalization_134[0][0]    
____________________________________________________________________________________________________
conv2d_138 (Conv2D)              (None, 56, 56, 64)    16448       activation_134[0][0]             
____________________________________________________________________________________________________
batch_normalization_135 (BatchNo (None, 56, 56, 64)    256         conv2d_138[0][0]                 
____________________________________________________________________________________________________
activation_135 (Activation)      (None, 56, 56, 64)    0           batch_normalization_135[0][0]    
____________________________________________________________________________________________________
conv2d_139 (Conv2D)              (None, 56, 56, 64)    36928       activation_135[0][0]             
____________________________________________________________________________________________________
batch_normalization_136 (BatchNo (None, 56, 56, 64)    256         conv2d_139[0][0]                 
____________________________________________________________________________________________________
activation_136 (Activation)      (None, 56, 56, 64)    0           batch_normalization_136[0][0]    
____________________________________________________________________________________________________
conv2d_140 (Conv2D)              (None, 56, 56, 256)   16640       activation_136[0][0]             
____________________________________________________________________________________________________
add_45 (Add)                     (None, 56, 56, 256)   0           add_44[0][0]                     
                                                                   conv2d_140[0][0]                 
____________________________________________________________________________________________________
batch_normalization_137 (BatchNo (None, 56, 56, 256)   1024        add_45[0][0]                     
____________________________________________________________________________________________________
activation_137 (Activation)      (None, 56, 56, 256)   0           batch_normalization_137[0][0]    
____________________________________________________________________________________________________
conv2d_141 (Conv2D)              (None, 56, 56, 64)    16448       activation_137[0][0]             
____________________________________________________________________________________________________
batch_normalization_138 (BatchNo (None, 56, 56, 64)    256         conv2d_141[0][0]                 
____________________________________________________________________________________________________
activation_138 (Activation)      (None, 56, 56, 64)    0           batch_normalization_138[0][0]    
____________________________________________________________________________________________________
conv2d_142 (Conv2D)              (None, 56, 56, 64)    36928       activation_138[0][0]             
____________________________________________________________________________________________________
batch_normalization_139 (BatchNo (None, 56, 56, 64)    256         conv2d_142[0][0]                 
____________________________________________________________________________________________________
activation_139 (Activation)      (None, 56, 56, 64)    0           batch_normalization_139[0][0]    
____________________________________________________________________________________________________
conv2d_143 (Conv2D)              (None, 56, 56, 256)   16640       activation_139[0][0]             
____________________________________________________________________________________________________
add_46 (Add)                     (None, 56, 56, 256)   0           add_45[0][0]                     
                                                                   conv2d_143[0][0]                 
____________________________________________________________________________________________________
batch_normalization_140 (BatchNo (None, 56, 56, 256)   1024        add_46[0][0]                     
____________________________________________________________________________________________________
activation_140 (Activation)      (None, 56, 56, 256)   0           batch_normalization_140[0][0]    
____________________________________________________________________________________________________
conv2d_144 (Conv2D)              (None, 28, 28, 128)   32896       activation_140[0][0]             
____________________________________________________________________________________________________
batch_normalization_141 (BatchNo (None, 28, 28, 128)   512         conv2d_144[0][0]                 
____________________________________________________________________________________________________
activation_141 (Activation)      (None, 28, 28, 128)   0           batch_normalization_141[0][0]    
____________________________________________________________________________________________________
conv2d_145 (Conv2D)              (None, 28, 28, 128)   147584      activation_141[0][0]             
____________________________________________________________________________________________________
batch_normalization_142 (BatchNo (None, 28, 28, 128)   512         conv2d_145[0][0]                 
____________________________________________________________________________________________________
activation_142 (Activation)      (None, 28, 28, 128)   0           batch_normalization_142[0][0]    
____________________________________________________________________________________________________
conv2d_147 (Conv2D)              (None, 28, 28, 512)   131584      add_46[0][0]                     
____________________________________________________________________________________________________
conv2d_146 (Conv2D)              (None, 28, 28, 512)   66048       activation_142[0][0]             
____________________________________________________________________________________________________
add_47 (Add)                     (None, 28, 28, 512)   0           conv2d_147[0][0]                 
                                                                   conv2d_146[0][0]                 
____________________________________________________________________________________________________
batch_normalization_143 (BatchNo (None, 28, 28, 512)   2048        add_47[0][0]                     
____________________________________________________________________________________________________
activation_143 (Activation)      (None, 28, 28, 512)   0           batch_normalization_143[0][0]    
____________________________________________________________________________________________________
conv2d_148 (Conv2D)              (None, 28, 28, 128)   65664       activation_143[0][0]             
____________________________________________________________________________________________________
batch_normalization_144 (BatchNo (None, 28, 28, 128)   512         conv2d_148[0][0]                 
____________________________________________________________________________________________________
activation_144 (Activation)      (None, 28, 28, 128)   0           batch_normalization_144[0][0]    
____________________________________________________________________________________________________
conv2d_149 (Conv2D)              (None, 28, 28, 128)   147584      activation_144[0][0]             
____________________________________________________________________________________________________
batch_normalization_145 (BatchNo (None, 28, 28, 128)   512         conv2d_149[0][0]                 
____________________________________________________________________________________________________
activation_145 (Activation)      (None, 28, 28, 128)   0           batch_normalization_145[0][0]    
____________________________________________________________________________________________________
conv2d_150 (Conv2D)              (None, 28, 28, 512)   66048       activation_145[0][0]             
____________________________________________________________________________________________________
add_48 (Add)                     (None, 28, 28, 512)   0           add_47[0][0]                     
                                                                   conv2d_150[0][0]                 
____________________________________________________________________________________________________
batch_normalization_146 (BatchNo (None, 28, 28, 512)   2048        add_48[0][0]                     
____________________________________________________________________________________________________
activation_146 (Activation)      (None, 28, 28, 512)   0           batch_normalization_146[0][0]    
____________________________________________________________________________________________________
conv2d_151 (Conv2D)              (None, 28, 28, 128)   65664       activation_146[0][0]             
____________________________________________________________________________________________________
batch_normalization_147 (BatchNo (None, 28, 28, 128)   512         conv2d_151[0][0]                 
____________________________________________________________________________________________________
activation_147 (Activation)      (None, 28, 28, 128)   0           batch_normalization_147[0][0]    
____________________________________________________________________________________________________
conv2d_152 (Conv2D)              (None, 28, 28, 128)   147584      activation_147[0][0]             
____________________________________________________________________________________________________
batch_normalization_148 (BatchNo (None, 28, 28, 128)   512         conv2d_152[0][0]                 
____________________________________________________________________________________________________
activation_148 (Activation)      (None, 28, 28, 128)   0           batch_normalization_148[0][0]    
____________________________________________________________________________________________________
conv2d_153 (Conv2D)              (None, 28, 28, 512)   66048       activation_148[0][0]             
____________________________________________________________________________________________________
add_49 (Add)                     (None, 28, 28, 512)   0           add_48[0][0]                     
                                                                   conv2d_153[0][0]                 
____________________________________________________________________________________________________
batch_normalization_149 (BatchNo (None, 28, 28, 512)   2048        add_49[0][0]                     
____________________________________________________________________________________________________
activation_149 (Activation)      (None, 28, 28, 512)   0           batch_normalization_149[0][0]    
____________________________________________________________________________________________________
conv2d_154 (Conv2D)              (None, 28, 28, 128)   65664       activation_149[0][0]             
____________________________________________________________________________________________________
batch_normalization_150 (BatchNo (None, 28, 28, 128)   512         conv2d_154[0][0]                 
____________________________________________________________________________________________________
activation_150 (Activation)      (None, 28, 28, 128)   0           batch_normalization_150[0][0]    
____________________________________________________________________________________________________
conv2d_155 (Conv2D)              (None, 28, 28, 128)   147584      activation_150[0][0]             
____________________________________________________________________________________________________
batch_normalization_151 (BatchNo (None, 28, 28, 128)   512         conv2d_155[0][0]                 
____________________________________________________________________________________________________
activation_151 (Activation)      (None, 28, 28, 128)   0           batch_normalization_151[0][0]    
____________________________________________________________________________________________________
conv2d_156 (Conv2D)              (None, 28, 28, 512)   66048       activation_151[0][0]             
____________________________________________________________________________________________________
add_50 (Add)                     (None, 28, 28, 512)   0           add_49[0][0]                     
                                                                   conv2d_156[0][0]                 
____________________________________________________________________________________________________
batch_normalization_152 (BatchNo (None, 28, 28, 512)   2048        add_50[0][0]                     
____________________________________________________________________________________________________
activation_152 (Activation)      (None, 28, 28, 512)   0           batch_normalization_152[0][0]    
____________________________________________________________________________________________________
conv2d_157 (Conv2D)              (None, 28, 28, 128)   65664       activation_152[0][0]             
____________________________________________________________________________________________________
batch_normalization_153 (BatchNo (None, 28, 28, 128)   512         conv2d_157[0][0]                 
____________________________________________________________________________________________________
activation_153 (Activation)      (None, 28, 28, 128)   0           batch_normalization_153[0][0]    
____________________________________________________________________________________________________
conv2d_158 (Conv2D)              (None, 28, 28, 128)   147584      activation_153[0][0]             
____________________________________________________________________________________________________
batch_normalization_154 (BatchNo (None, 28, 28, 128)   512         conv2d_158[0][0]                 
____________________________________________________________________________________________________
activation_154 (Activation)      (None, 28, 28, 128)   0           batch_normalization_154[0][0]    
____________________________________________________________________________________________________
conv2d_159 (Conv2D)              (None, 28, 28, 512)   66048       activation_154[0][0]             
____________________________________________________________________________________________________
add_51 (Add)                     (None, 28, 28, 512)   0           add_50[0][0]                     
                                                                   conv2d_159[0][0]                 
____________________________________________________________________________________________________
batch_normalization_155 (BatchNo (None, 28, 28, 512)   2048        add_51[0][0]                     
____________________________________________________________________________________________________
activation_155 (Activation)      (None, 28, 28, 512)   0           batch_normalization_155[0][0]    
____________________________________________________________________________________________________
conv2d_160 (Conv2D)              (None, 28, 28, 128)   65664       activation_155[0][0]             
____________________________________________________________________________________________________
batch_normalization_156 (BatchNo (None, 28, 28, 128)   512         conv2d_160[0][0]                 
____________________________________________________________________________________________________
activation_156 (Activation)      (None, 28, 28, 128)   0           batch_normalization_156[0][0]    
____________________________________________________________________________________________________
conv2d_161 (Conv2D)              (None, 28, 28, 128)   147584      activation_156[0][0]             
____________________________________________________________________________________________________
batch_normalization_157 (BatchNo (None, 28, 28, 128)   512         conv2d_161[0][0]                 
____________________________________________________________________________________________________
activation_157 (Activation)      (None, 28, 28, 128)   0           batch_normalization_157[0][0]    
____________________________________________________________________________________________________
conv2d_162 (Conv2D)              (None, 28, 28, 512)   66048       activation_157[0][0]             
____________________________________________________________________________________________________
add_52 (Add)                     (None, 28, 28, 512)   0           add_51[0][0]                     
                                                                   conv2d_162[0][0]                 
____________________________________________________________________________________________________
batch_normalization_158 (BatchNo (None, 28, 28, 512)   2048        add_52[0][0]                     
____________________________________________________________________________________________________
activation_158 (Activation)      (None, 28, 28, 512)   0           batch_normalization_158[0][0]    
____________________________________________________________________________________________________
conv2d_163 (Conv2D)              (None, 28, 28, 128)   65664       activation_158[0][0]             
____________________________________________________________________________________________________
batch_normalization_159 (BatchNo (None, 28, 28, 128)   512         conv2d_163[0][0]                 
____________________________________________________________________________________________________
activation_159 (Activation)      (None, 28, 28, 128)   0           batch_normalization_159[0][0]    
____________________________________________________________________________________________________
conv2d_164 (Conv2D)              (None, 28, 28, 128)   147584      activation_159[0][0]             
____________________________________________________________________________________________________
batch_normalization_160 (BatchNo (None, 28, 28, 128)   512         conv2d_164[0][0]                 
____________________________________________________________________________________________________
activation_160 (Activation)      (None, 28, 28, 128)   0           batch_normalization_160[0][0]    
____________________________________________________________________________________________________
conv2d_165 (Conv2D)              (None, 28, 28, 512)   66048       activation_160[0][0]             
____________________________________________________________________________________________________
add_53 (Add)                     (None, 28, 28, 512)   0           add_52[0][0]                     
                                                                   conv2d_165[0][0]                 
____________________________________________________________________________________________________
batch_normalization_161 (BatchNo (None, 28, 28, 512)   2048        add_53[0][0]                     
____________________________________________________________________________________________________
activation_161 (Activation)      (None, 28, 28, 512)   0           batch_normalization_161[0][0]    
____________________________________________________________________________________________________
conv2d_166 (Conv2D)              (None, 28, 28, 128)   65664       activation_161[0][0]             
____________________________________________________________________________________________________
batch_normalization_162 (BatchNo (None, 28, 28, 128)   512         conv2d_166[0][0]                 
____________________________________________________________________________________________________
activation_162 (Activation)      (None, 28, 28, 128)   0           batch_normalization_162[0][0]    
____________________________________________________________________________________________________
conv2d_167 (Conv2D)              (None, 28, 28, 128)   147584      activation_162[0][0]             
____________________________________________________________________________________________________
batch_normalization_163 (BatchNo (None, 28, 28, 128)   512         conv2d_167[0][0]                 
____________________________________________________________________________________________________
activation_163 (Activation)      (None, 28, 28, 128)   0           batch_normalization_163[0][0]    
____________________________________________________________________________________________________
conv2d_168 (Conv2D)              (None, 28, 28, 512)   66048       activation_163[0][0]             
____________________________________________________________________________________________________
add_54 (Add)                     (None, 28, 28, 512)   0           add_53[0][0]                     
                                                                   conv2d_168[0][0]                 
____________________________________________________________________________________________________
batch_normalization_164 (BatchNo (None, 28, 28, 512)   2048        add_54[0][0]                     
____________________________________________________________________________________________________
activation_164 (Activation)      (None, 28, 28, 512)   0           batch_normalization_164[0][0]    
____________________________________________________________________________________________________
conv2d_169 (Conv2D)              (None, 14, 14, 256)   131328      activation_164[0][0]             
____________________________________________________________________________________________________
batch_normalization_165 (BatchNo (None, 14, 14, 256)   1024        conv2d_169[0][0]                 
____________________________________________________________________________________________________
activation_165 (Activation)      (None, 14, 14, 256)   0           batch_normalization_165[0][0]    
____________________________________________________________________________________________________
conv2d_170 (Conv2D)              (None, 14, 14, 256)   590080      activation_165[0][0]             
____________________________________________________________________________________________________
batch_normalization_166 (BatchNo (None, 14, 14, 256)   1024        conv2d_170[0][0]                 
____________________________________________________________________________________________________
activation_166 (Activation)      (None, 14, 14, 256)   0           batch_normalization_166[0][0]    
____________________________________________________________________________________________________
conv2d_172 (Conv2D)              (None, 14, 14, 1024)  525312      add_54[0][0]                     
____________________________________________________________________________________________________
conv2d_171 (Conv2D)              (None, 14, 14, 1024)  263168      activation_166[0][0]             
____________________________________________________________________________________________________
add_55 (Add)                     (None, 14, 14, 1024)  0           conv2d_172[0][0]                 
                                                                   conv2d_171[0][0]                 
____________________________________________________________________________________________________
batch_normalization_167 (BatchNo (None, 14, 14, 1024)  4096        add_55[0][0]                     
____________________________________________________________________________________________________
activation_167 (Activation)      (None, 14, 14, 1024)  0           batch_normalization_167[0][0]    
____________________________________________________________________________________________________
conv2d_173 (Conv2D)              (None, 14, 14, 256)   262400      activation_167[0][0]             
____________________________________________________________________________________________________
batch_normalization_168 (BatchNo (None, 14, 14, 256)   1024        conv2d_173[0][0]                 
____________________________________________________________________________________________________
activation_168 (Activation)      (None, 14, 14, 256)   0           batch_normalization_168[0][0]    
____________________________________________________________________________________________________
conv2d_174 (Conv2D)              (None, 14, 14, 256)   590080      activation_168[0][0]             
____________________________________________________________________________________________________
batch_normalization_169 (BatchNo (None, 14, 14, 256)   1024        conv2d_174[0][0]                 
____________________________________________________________________________________________________
activation_169 (Activation)      (None, 14, 14, 256)   0           batch_normalization_169[0][0]    
____________________________________________________________________________________________________
conv2d_175 (Conv2D)              (None, 14, 14, 1024)  263168      activation_169[0][0]             
____________________________________________________________________________________________________
add_56 (Add)                     (None, 14, 14, 1024)  0           add_55[0][0]                     
                                                                   conv2d_175[0][0]                 
____________________________________________________________________________________________________
batch_normalization_170 (BatchNo (None, 14, 14, 1024)  4096        add_56[0][0]                     
____________________________________________________________________________________________________
activation_170 (Activation)      (None, 14, 14, 1024)  0           batch_normalization_170[0][0]    
____________________________________________________________________________________________________
conv2d_176 (Conv2D)              (None, 14, 14, 256)   262400      activation_170[0][0]             
____________________________________________________________________________________________________
batch_normalization_171 (BatchNo (None, 14, 14, 256)   1024        conv2d_176[0][0]                 
____________________________________________________________________________________________________
activation_171 (Activation)      (None, 14, 14, 256)   0           batch_normalization_171[0][0]    
____________________________________________________________________________________________________
conv2d_177 (Conv2D)              (None, 14, 14, 256)   590080      activation_171[0][0]             
____________________________________________________________________________________________________
batch_normalization_172 (BatchNo (None, 14, 14, 256)   1024        conv2d_177[0][0]                 
____________________________________________________________________________________________________
activation_172 (Activation)      (None, 14, 14, 256)   0           batch_normalization_172[0][0]    
____________________________________________________________________________________________________
conv2d_178 (Conv2D)              (None, 14, 14, 1024)  263168      activation_172[0][0]             
____________________________________________________________________________________________________
add_57 (Add)                     (None, 14, 14, 1024)  0           add_56[0][0]                     
                                                                   conv2d_178[0][0]                 
____________________________________________________________________________________________________
batch_normalization_173 (BatchNo (None, 14, 14, 1024)  4096        add_57[0][0]                     
____________________________________________________________________________________________________
activation_173 (Activation)      (None, 14, 14, 1024)  0           batch_normalization_173[0][0]    
____________________________________________________________________________________________________
conv2d_179 (Conv2D)              (None, 14, 14, 256)   262400      activation_173[0][0]             
____________________________________________________________________________________________________
batch_normalization_174 (BatchNo (None, 14, 14, 256)   1024        conv2d_179[0][0]                 
____________________________________________________________________________________________________
activation_174 (Activation)      (None, 14, 14, 256)   0           batch_normalization_174[0][0]    
____________________________________________________________________________________________________
conv2d_180 (Conv2D)              (None, 14, 14, 256)   590080      activation_174[0][0]             
____________________________________________________________________________________________________
batch_normalization_175 (BatchNo (None, 14, 14, 256)   1024        conv2d_180[0][0]                 
____________________________________________________________________________________________________
activation_175 (Activation)      (None, 14, 14, 256)   0           batch_normalization_175[0][0]    
____________________________________________________________________________________________________
conv2d_181 (Conv2D)              (None, 14, 14, 1024)  263168      activation_175[0][0]             
____________________________________________________________________________________________________
add_58 (Add)                     (None, 14, 14, 1024)  0           add_57[0][0]                     
                                                                   conv2d_181[0][0]                 
____________________________________________________________________________________________________
batch_normalization_176 (BatchNo (None, 14, 14, 1024)  4096        add_58[0][0]                     
____________________________________________________________________________________________________
activation_176 (Activation)      (None, 14, 14, 1024)  0           batch_normalization_176[0][0]    
____________________________________________________________________________________________________
conv2d_182 (Conv2D)              (None, 14, 14, 256)   262400      activation_176[0][0]             
____________________________________________________________________________________________________
batch_normalization_177 (BatchNo (None, 14, 14, 256)   1024        conv2d_182[0][0]                 
____________________________________________________________________________________________________
activation_177 (Activation)      (None, 14, 14, 256)   0           batch_normalization_177[0][0]    
____________________________________________________________________________________________________
conv2d_183 (Conv2D)              (None, 14, 14, 256)   590080      activation_177[0][0]             
____________________________________________________________________________________________________
batch_normalization_178 (BatchNo (None, 14, 14, 256)   1024        conv2d_183[0][0]                 
____________________________________________________________________________________________________
activation_178 (Activation)      (None, 14, 14, 256)   0           batch_normalization_178[0][0]    
____________________________________________________________________________________________________
conv2d_184 (Conv2D)              (None, 14, 14, 1024)  263168      activation_178[0][0]             
____________________________________________________________________________________________________
add_59 (Add)                     (None, 14, 14, 1024)  0           add_58[0][0]                     
                                                                   conv2d_184[0][0]                 
____________________________________________________________________________________________________
batch_normalization_179 (BatchNo (None, 14, 14, 1024)  4096        add_59[0][0]                     
____________________________________________________________________________________________________
activation_179 (Activation)      (None, 14, 14, 1024)  0           batch_normalization_179[0][0]    
____________________________________________________________________________________________________
conv2d_185 (Conv2D)              (None, 14, 14, 256)   262400      activation_179[0][0]             
____________________________________________________________________________________________________
batch_normalization_180 (BatchNo (None, 14, 14, 256)   1024        conv2d_185[0][0]                 
____________________________________________________________________________________________________
activation_180 (Activation)      (None, 14, 14, 256)   0           batch_normalization_180[0][0]    
____________________________________________________________________________________________________
conv2d_186 (Conv2D)              (None, 14, 14, 256)   590080      activation_180[0][0]             
____________________________________________________________________________________________________
batch_normalization_181 (BatchNo (None, 14, 14, 256)   1024        conv2d_186[0][0]                 
____________________________________________________________________________________________________
activation_181 (Activation)      (None, 14, 14, 256)   0           batch_normalization_181[0][0]    
____________________________________________________________________________________________________
conv2d_187 (Conv2D)              (None, 14, 14, 1024)  263168      activation_181[0][0]             
____________________________________________________________________________________________________
add_60 (Add)                     (None, 14, 14, 1024)  0           add_59[0][0]                     
                                                                   conv2d_187[0][0]                 
____________________________________________________________________________________________________
batch_normalization_182 (BatchNo (None, 14, 14, 1024)  4096        add_60[0][0]                     
____________________________________________________________________________________________________
activation_182 (Activation)      (None, 14, 14, 1024)  0           batch_normalization_182[0][0]    
____________________________________________________________________________________________________
conv2d_188 (Conv2D)              (None, 14, 14, 256)   262400      activation_182[0][0]             
____________________________________________________________________________________________________
batch_normalization_183 (BatchNo (None, 14, 14, 256)   1024        conv2d_188[0][0]                 
____________________________________________________________________________________________________
activation_183 (Activation)      (None, 14, 14, 256)   0           batch_normalization_183[0][0]    
____________________________________________________________________________________________________
conv2d_189 (Conv2D)              (None, 14, 14, 256)   590080      activation_183[0][0]             
____________________________________________________________________________________________________
batch_normalization_184 (BatchNo (None, 14, 14, 256)   1024        conv2d_189[0][0]                 
____________________________________________________________________________________________________
activation_184 (Activation)      (None, 14, 14, 256)   0           batch_normalization_184[0][0]    
____________________________________________________________________________________________________
conv2d_190 (Conv2D)              (None, 14, 14, 1024)  263168      activation_184[0][0]             
____________________________________________________________________________________________________
add_61 (Add)                     (None, 14, 14, 1024)  0           add_60[0][0]                     
                                                                   conv2d_190[0][0]                 
____________________________________________________________________________________________________
batch_normalization_185 (BatchNo (None, 14, 14, 1024)  4096        add_61[0][0]                     
____________________________________________________________________________________________________
activation_185 (Activation)      (None, 14, 14, 1024)  0           batch_normalization_185[0][0]    
____________________________________________________________________________________________________
conv2d_191 (Conv2D)              (None, 14, 14, 256)   262400      activation_185[0][0]             
____________________________________________________________________________________________________
batch_normalization_186 (BatchNo (None, 14, 14, 256)   1024        conv2d_191[0][0]                 
____________________________________________________________________________________________________
activation_186 (Activation)      (None, 14, 14, 256)   0           batch_normalization_186[0][0]    
____________________________________________________________________________________________________
conv2d_192 (Conv2D)              (None, 14, 14, 256)   590080      activation_186[0][0]             
____________________________________________________________________________________________________
batch_normalization_187 (BatchNo (None, 14, 14, 256)   1024        conv2d_192[0][0]                 
____________________________________________________________________________________________________
activation_187 (Activation)      (None, 14, 14, 256)   0           batch_normalization_187[0][0]    
____________________________________________________________________________________________________
conv2d_193 (Conv2D)              (None, 14, 14, 1024)  263168      activation_187[0][0]             
____________________________________________________________________________________________________
add_62 (Add)                     (None, 14, 14, 1024)  0           add_61[0][0]                     
                                                                   conv2d_193[0][0]                 
____________________________________________________________________________________________________
batch_normalization_188 (BatchNo (None, 14, 14, 1024)  4096        add_62[0][0]                     
____________________________________________________________________________________________________
activation_188 (Activation)      (None, 14, 14, 1024)  0           batch_normalization_188[0][0]    
____________________________________________________________________________________________________
conv2d_194 (Conv2D)              (None, 14, 14, 256)   262400      activation_188[0][0]             
____________________________________________________________________________________________________
batch_normalization_189 (BatchNo (None, 14, 14, 256)   1024        conv2d_194[0][0]                 
____________________________________________________________________________________________________
activation_189 (Activation)      (None, 14, 14, 256)   0           batch_normalization_189[0][0]    
____________________________________________________________________________________________________
conv2d_195 (Conv2D)              (None, 14, 14, 256)   590080      activation_189[0][0]             
____________________________________________________________________________________________________
batch_normalization_190 (BatchNo (None, 14, 14, 256)   1024        conv2d_195[0][0]                 
____________________________________________________________________________________________________
activation_190 (Activation)      (None, 14, 14, 256)   0           batch_normalization_190[0][0]    
____________________________________________________________________________________________________
conv2d_196 (Conv2D)              (None, 14, 14, 1024)  263168      activation_190[0][0]             
____________________________________________________________________________________________________
add_63 (Add)                     (None, 14, 14, 1024)  0           add_62[0][0]                     
                                                                   conv2d_196[0][0]                 
____________________________________________________________________________________________________
batch_normalization_191 (BatchNo (None, 14, 14, 1024)  4096        add_63[0][0]                     
____________________________________________________________________________________________________
activation_191 (Activation)      (None, 14, 14, 1024)  0           batch_normalization_191[0][0]    
____________________________________________________________________________________________________
conv2d_197 (Conv2D)              (None, 14, 14, 256)   262400      activation_191[0][0]             
____________________________________________________________________________________________________
batch_normalization_192 (BatchNo (None, 14, 14, 256)   1024        conv2d_197[0][0]                 
____________________________________________________________________________________________________
activation_192 (Activation)      (None, 14, 14, 256)   0           batch_normalization_192[0][0]    
____________________________________________________________________________________________________
conv2d_198 (Conv2D)              (None, 14, 14, 256)   590080      activation_192[0][0]             
____________________________________________________________________________________________________
batch_normalization_193 (BatchNo (None, 14, 14, 256)   1024        conv2d_198[0][0]                 
____________________________________________________________________________________________________
activation_193 (Activation)      (None, 14, 14, 256)   0           batch_normalization_193[0][0]    
____________________________________________________________________________________________________
conv2d_199 (Conv2D)              (None, 14, 14, 1024)  263168      activation_193[0][0]             
____________________________________________________________________________________________________
add_64 (Add)                     (None, 14, 14, 1024)  0           add_63[0][0]                     
                                                                   conv2d_199[0][0]                 
____________________________________________________________________________________________________
batch_normalization_194 (BatchNo (None, 14, 14, 1024)  4096        add_64[0][0]                     
____________________________________________________________________________________________________
activation_194 (Activation)      (None, 14, 14, 1024)  0           batch_normalization_194[0][0]    
____________________________________________________________________________________________________
conv2d_200 (Conv2D)              (None, 14, 14, 256)   262400      activation_194[0][0]             
____________________________________________________________________________________________________
batch_normalization_195 (BatchNo (None, 14, 14, 256)   1024        conv2d_200[0][0]                 
____________________________________________________________________________________________________
activation_195 (Activation)      (None, 14, 14, 256)   0           batch_normalization_195[0][0]    
____________________________________________________________________________________________________
conv2d_201 (Conv2D)              (None, 14, 14, 256)   590080      activation_195[0][0]             
____________________________________________________________________________________________________
batch_normalization_196 (BatchNo (None, 14, 14, 256)   1024        conv2d_201[0][0]                 
____________________________________________________________________________________________________
activation_196 (Activation)      (None, 14, 14, 256)   0           batch_normalization_196[0][0]    
____________________________________________________________________________________________________
conv2d_202 (Conv2D)              (None, 14, 14, 1024)  263168      activation_196[0][0]             
____________________________________________________________________________________________________
add_65 (Add)                     (None, 14, 14, 1024)  0           add_64[0][0]                     
                                                                   conv2d_202[0][0]                 
____________________________________________________________________________________________________
batch_normalization_197 (BatchNo (None, 14, 14, 1024)  4096        add_65[0][0]                     
____________________________________________________________________________________________________
activation_197 (Activation)      (None, 14, 14, 1024)  0           batch_normalization_197[0][0]    
____________________________________________________________________________________________________
conv2d_203 (Conv2D)              (None, 14, 14, 256)   262400      activation_197[0][0]             
____________________________________________________________________________________________________
batch_normalization_198 (BatchNo (None, 14, 14, 256)   1024        conv2d_203[0][0]                 
____________________________________________________________________________________________________
activation_198 (Activation)      (None, 14, 14, 256)   0           batch_normalization_198[0][0]    
____________________________________________________________________________________________________
conv2d_204 (Conv2D)              (None, 14, 14, 256)   590080      activation_198[0][0]             
____________________________________________________________________________________________________
batch_normalization_199 (BatchNo (None, 14, 14, 256)   1024        conv2d_204[0][0]                 
____________________________________________________________________________________________________
activation_199 (Activation)      (None, 14, 14, 256)   0           batch_normalization_199[0][0]    
____________________________________________________________________________________________________
conv2d_205 (Conv2D)              (None, 14, 14, 1024)  263168      activation_199[0][0]             
____________________________________________________________________________________________________
add_66 (Add)                     (None, 14, 14, 1024)  0           add_65[0][0]                     
                                                                   conv2d_205[0][0]                 
____________________________________________________________________________________________________
batch_normalization_200 (BatchNo (None, 14, 14, 1024)  4096        add_66[0][0]                     
____________________________________________________________________________________________________
activation_200 (Activation)      (None, 14, 14, 1024)  0           batch_normalization_200[0][0]    
____________________________________________________________________________________________________
conv2d_206 (Conv2D)              (None, 14, 14, 256)   262400      activation_200[0][0]             
____________________________________________________________________________________________________
batch_normalization_201 (BatchNo (None, 14, 14, 256)   1024        conv2d_206[0][0]                 
____________________________________________________________________________________________________
activation_201 (Activation)      (None, 14, 14, 256)   0           batch_normalization_201[0][0]    
____________________________________________________________________________________________________
conv2d_207 (Conv2D)              (None, 14, 14, 256)   590080      activation_201[0][0]             
____________________________________________________________________________________________________
batch_normalization_202 (BatchNo (None, 14, 14, 256)   1024        conv2d_207[0][0]                 
____________________________________________________________________________________________________
activation_202 (Activation)      (None, 14, 14, 256)   0           batch_normalization_202[0][0]    
____________________________________________________________________________________________________
conv2d_208 (Conv2D)              (None, 14, 14, 1024)  263168      activation_202[0][0]             
____________________________________________________________________________________________________
add_67 (Add)                     (None, 14, 14, 1024)  0           add_66[0][0]                     
                                                                   conv2d_208[0][0]                 
____________________________________________________________________________________________________
batch_normalization_203 (BatchNo (None, 14, 14, 1024)  4096        add_67[0][0]                     
____________________________________________________________________________________________________
activation_203 (Activation)      (None, 14, 14, 1024)  0           batch_normalization_203[0][0]    
____________________________________________________________________________________________________
conv2d_209 (Conv2D)              (None, 14, 14, 256)   262400      activation_203[0][0]             
____________________________________________________________________________________________________
batch_normalization_204 (BatchNo (None, 14, 14, 256)   1024        conv2d_209[0][0]                 
____________________________________________________________________________________________________
activation_204 (Activation)      (None, 14, 14, 256)   0           batch_normalization_204[0][0]    
____________________________________________________________________________________________________
conv2d_210 (Conv2D)              (None, 14, 14, 256)   590080      activation_204[0][0]             
____________________________________________________________________________________________________
batch_normalization_205 (BatchNo (None, 14, 14, 256)   1024        conv2d_210[0][0]                 
____________________________________________________________________________________________________
activation_205 (Activation)      (None, 14, 14, 256)   0           batch_normalization_205[0][0]    
____________________________________________________________________________________________________
conv2d_211 (Conv2D)              (None, 14, 14, 1024)  263168      activation_205[0][0]             
____________________________________________________________________________________________________
add_68 (Add)                     (None, 14, 14, 1024)  0           add_67[0][0]                     
                                                                   conv2d_211[0][0]                 
____________________________________________________________________________________________________
batch_normalization_206 (BatchNo (None, 14, 14, 1024)  4096        add_68[0][0]                     
____________________________________________________________________________________________________
activation_206 (Activation)      (None, 14, 14, 1024)  0           batch_normalization_206[0][0]    
____________________________________________________________________________________________________
conv2d_212 (Conv2D)              (None, 14, 14, 256)   262400      activation_206[0][0]             
____________________________________________________________________________________________________
batch_normalization_207 (BatchNo (None, 14, 14, 256)   1024        conv2d_212[0][0]                 
____________________________________________________________________________________________________
activation_207 (Activation)      (None, 14, 14, 256)   0           batch_normalization_207[0][0]    
____________________________________________________________________________________________________
conv2d_213 (Conv2D)              (None, 14, 14, 256)   590080      activation_207[0][0]             
____________________________________________________________________________________________________
batch_normalization_208 (BatchNo (None, 14, 14, 256)   1024        conv2d_213[0][0]                 
____________________________________________________________________________________________________
activation_208 (Activation)      (None, 14, 14, 256)   0           batch_normalization_208[0][0]    
____________________________________________________________________________________________________
conv2d_214 (Conv2D)              (None, 14, 14, 1024)  263168      activation_208[0][0]             
____________________________________________________________________________________________________
add_69 (Add)                     (None, 14, 14, 1024)  0           add_68[0][0]                     
                                                                   conv2d_214[0][0]                 
____________________________________________________________________________________________________
batch_normalization_209 (BatchNo (None, 14, 14, 1024)  4096        add_69[0][0]                     
____________________________________________________________________________________________________
activation_209 (Activation)      (None, 14, 14, 1024)  0           batch_normalization_209[0][0]    
____________________________________________________________________________________________________
conv2d_215 (Conv2D)              (None, 14, 14, 256)   262400      activation_209[0][0]             
____________________________________________________________________________________________________
batch_normalization_210 (BatchNo (None, 14, 14, 256)   1024        conv2d_215[0][0]                 
____________________________________________________________________________________________________
activation_210 (Activation)      (None, 14, 14, 256)   0           batch_normalization_210[0][0]    
____________________________________________________________________________________________________
conv2d_216 (Conv2D)              (None, 14, 14, 256)   590080      activation_210[0][0]             
____________________________________________________________________________________________________
batch_normalization_211 (BatchNo (None, 14, 14, 256)   1024        conv2d_216[0][0]                 
____________________________________________________________________________________________________
activation_211 (Activation)      (None, 14, 14, 256)   0           batch_normalization_211[0][0]    
____________________________________________________________________________________________________
conv2d_217 (Conv2D)              (None, 14, 14, 1024)  263168      activation_211[0][0]             
____________________________________________________________________________________________________
add_70 (Add)                     (None, 14, 14, 1024)  0           add_69[0][0]                     
                                                                   conv2d_217[0][0]                 
____________________________________________________________________________________________________
batch_normalization_212 (BatchNo (None, 14, 14, 1024)  4096        add_70[0][0]                     
____________________________________________________________________________________________________
activation_212 (Activation)      (None, 14, 14, 1024)  0           batch_normalization_212[0][0]    
____________________________________________________________________________________________________
conv2d_218 (Conv2D)              (None, 14, 14, 256)   262400      activation_212[0][0]             
____________________________________________________________________________________________________
batch_normalization_213 (BatchNo (None, 14, 14, 256)   1024        conv2d_218[0][0]                 
____________________________________________________________________________________________________
activation_213 (Activation)      (None, 14, 14, 256)   0           batch_normalization_213[0][0]    
____________________________________________________________________________________________________
conv2d_219 (Conv2D)              (None, 14, 14, 256)   590080      activation_213[0][0]             
____________________________________________________________________________________________________
batch_normalization_214 (BatchNo (None, 14, 14, 256)   1024        conv2d_219[0][0]                 
____________________________________________________________________________________________________
activation_214 (Activation)      (None, 14, 14, 256)   0           batch_normalization_214[0][0]    
____________________________________________________________________________________________________
conv2d_220 (Conv2D)              (None, 14, 14, 1024)  263168      activation_214[0][0]             
____________________________________________________________________________________________________
add_71 (Add)                     (None, 14, 14, 1024)  0           add_70[0][0]                     
                                                                   conv2d_220[0][0]                 
____________________________________________________________________________________________________
batch_normalization_215 (BatchNo (None, 14, 14, 1024)  4096        add_71[0][0]                     
____________________________________________________________________________________________________
activation_215 (Activation)      (None, 14, 14, 1024)  0           batch_normalization_215[0][0]    
____________________________________________________________________________________________________
conv2d_221 (Conv2D)              (None, 14, 14, 256)   262400      activation_215[0][0]             
____________________________________________________________________________________________________
batch_normalization_216 (BatchNo (None, 14, 14, 256)   1024        conv2d_221[0][0]                 
____________________________________________________________________________________________________
activation_216 (Activation)      (None, 14, 14, 256)   0           batch_normalization_216[0][0]    
____________________________________________________________________________________________________
conv2d_222 (Conv2D)              (None, 14, 14, 256)   590080      activation_216[0][0]             
____________________________________________________________________________________________________
batch_normalization_217 (BatchNo (None, 14, 14, 256)   1024        conv2d_222[0][0]                 
____________________________________________________________________________________________________
activation_217 (Activation)      (None, 14, 14, 256)   0           batch_normalization_217[0][0]    
____________________________________________________________________________________________________
conv2d_223 (Conv2D)              (None, 14, 14, 1024)  263168      activation_217[0][0]             
____________________________________________________________________________________________________
add_72 (Add)                     (None, 14, 14, 1024)  0           add_71[0][0]                     
                                                                   conv2d_223[0][0]                 
____________________________________________________________________________________________________
batch_normalization_218 (BatchNo (None, 14, 14, 1024)  4096        add_72[0][0]                     
____________________________________________________________________________________________________
activation_218 (Activation)      (None, 14, 14, 1024)  0           batch_normalization_218[0][0]    
____________________________________________________________________________________________________
conv2d_224 (Conv2D)              (None, 14, 14, 256)   262400      activation_218[0][0]             
____________________________________________________________________________________________________
batch_normalization_219 (BatchNo (None, 14, 14, 256)   1024        conv2d_224[0][0]                 
____________________________________________________________________________________________________
activation_219 (Activation)      (None, 14, 14, 256)   0           batch_normalization_219[0][0]    
____________________________________________________________________________________________________
conv2d_225 (Conv2D)              (None, 14, 14, 256)   590080      activation_219[0][0]             
____________________________________________________________________________________________________
batch_normalization_220 (BatchNo (None, 14, 14, 256)   1024        conv2d_225[0][0]                 
____________________________________________________________________________________________________
activation_220 (Activation)      (None, 14, 14, 256)   0           batch_normalization_220[0][0]    
____________________________________________________________________________________________________
conv2d_226 (Conv2D)              (None, 14, 14, 1024)  263168      activation_220[0][0]             
____________________________________________________________________________________________________
add_73 (Add)                     (None, 14, 14, 1024)  0           add_72[0][0]                     
                                                                   conv2d_226[0][0]                 
____________________________________________________________________________________________________
batch_normalization_221 (BatchNo (None, 14, 14, 1024)  4096        add_73[0][0]                     
____________________________________________________________________________________________________
activation_221 (Activation)      (None, 14, 14, 1024)  0           batch_normalization_221[0][0]    
____________________________________________________________________________________________________
conv2d_227 (Conv2D)              (None, 14, 14, 256)   262400      activation_221[0][0]             
____________________________________________________________________________________________________
batch_normalization_222 (BatchNo (None, 14, 14, 256)   1024        conv2d_227[0][0]                 
____________________________________________________________________________________________________
activation_222 (Activation)      (None, 14, 14, 256)   0           batch_normalization_222[0][0]    
____________________________________________________________________________________________________
conv2d_228 (Conv2D)              (None, 14, 14, 256)   590080      activation_222[0][0]             
____________________________________________________________________________________________________
batch_normalization_223 (BatchNo (None, 14, 14, 256)   1024        conv2d_228[0][0]                 
____________________________________________________________________________________________________
activation_223 (Activation)      (None, 14, 14, 256)   0           batch_normalization_223[0][0]    
____________________________________________________________________________________________________
conv2d_229 (Conv2D)              (None, 14, 14, 1024)  263168      activation_223[0][0]             
____________________________________________________________________________________________________
add_74 (Add)                     (None, 14, 14, 1024)  0           add_73[0][0]                     
                                                                   conv2d_229[0][0]                 
____________________________________________________________________________________________________
batch_normalization_224 (BatchNo (None, 14, 14, 1024)  4096        add_74[0][0]                     
____________________________________________________________________________________________________
activation_224 (Activation)      (None, 14, 14, 1024)  0           batch_normalization_224[0][0]    
____________________________________________________________________________________________________
conv2d_230 (Conv2D)              (None, 14, 14, 256)   262400      activation_224[0][0]             
____________________________________________________________________________________________________
batch_normalization_225 (BatchNo (None, 14, 14, 256)   1024        conv2d_230[0][0]                 
____________________________________________________________________________________________________
activation_225 (Activation)      (None, 14, 14, 256)   0           batch_normalization_225[0][0]    
____________________________________________________________________________________________________
conv2d_231 (Conv2D)              (None, 14, 14, 256)   590080      activation_225[0][0]             
____________________________________________________________________________________________________
batch_normalization_226 (BatchNo (None, 14, 14, 256)   1024        conv2d_231[0][0]                 
____________________________________________________________________________________________________
activation_226 (Activation)      (None, 14, 14, 256)   0           batch_normalization_226[0][0]    
____________________________________________________________________________________________________
conv2d_232 (Conv2D)              (None, 14, 14, 1024)  263168      activation_226[0][0]             
____________________________________________________________________________________________________
add_75 (Add)                     (None, 14, 14, 1024)  0           add_74[0][0]                     
                                                                   conv2d_232[0][0]                 
____________________________________________________________________________________________________
batch_normalization_227 (BatchNo (None, 14, 14, 1024)  4096        add_75[0][0]                     
____________________________________________________________________________________________________
activation_227 (Activation)      (None, 14, 14, 1024)  0           batch_normalization_227[0][0]    
____________________________________________________________________________________________________
conv2d_233 (Conv2D)              (None, 14, 14, 256)   262400      activation_227[0][0]             
____________________________________________________________________________________________________
batch_normalization_228 (BatchNo (None, 14, 14, 256)   1024        conv2d_233[0][0]                 
____________________________________________________________________________________________________
activation_228 (Activation)      (None, 14, 14, 256)   0           batch_normalization_228[0][0]    
____________________________________________________________________________________________________
conv2d_234 (Conv2D)              (None, 14, 14, 256)   590080      activation_228[0][0]             
____________________________________________________________________________________________________
batch_normalization_229 (BatchNo (None, 14, 14, 256)   1024        conv2d_234[0][0]                 
____________________________________________________________________________________________________
activation_229 (Activation)      (None, 14, 14, 256)   0           batch_normalization_229[0][0]    
____________________________________________________________________________________________________
conv2d_235 (Conv2D)              (None, 14, 14, 1024)  263168      activation_229[0][0]             
____________________________________________________________________________________________________
add_76 (Add)                     (None, 14, 14, 1024)  0           add_75[0][0]                     
                                                                   conv2d_235[0][0]                 
____________________________________________________________________________________________________
batch_normalization_230 (BatchNo (None, 14, 14, 1024)  4096        add_76[0][0]                     
____________________________________________________________________________________________________
activation_230 (Activation)      (None, 14, 14, 1024)  0           batch_normalization_230[0][0]    
____________________________________________________________________________________________________
conv2d_236 (Conv2D)              (None, 14, 14, 256)   262400      activation_230[0][0]             
____________________________________________________________________________________________________
batch_normalization_231 (BatchNo (None, 14, 14, 256)   1024        conv2d_236[0][0]                 
____________________________________________________________________________________________________
activation_231 (Activation)      (None, 14, 14, 256)   0           batch_normalization_231[0][0]    
____________________________________________________________________________________________________
conv2d_237 (Conv2D)              (None, 14, 14, 256)   590080      activation_231[0][0]             
____________________________________________________________________________________________________
batch_normalization_232 (BatchNo (None, 14, 14, 256)   1024        conv2d_237[0][0]                 
____________________________________________________________________________________________________
activation_232 (Activation)      (None, 14, 14, 256)   0           batch_normalization_232[0][0]    
____________________________________________________________________________________________________
conv2d_238 (Conv2D)              (None, 14, 14, 1024)  263168      activation_232[0][0]             
____________________________________________________________________________________________________
add_77 (Add)                     (None, 14, 14, 1024)  0           add_76[0][0]                     
                                                                   conv2d_238[0][0]                 
____________________________________________________________________________________________________
batch_normalization_233 (BatchNo (None, 14, 14, 1024)  4096        add_77[0][0]                     
____________________________________________________________________________________________________
activation_233 (Activation)      (None, 14, 14, 1024)  0           batch_normalization_233[0][0]    
____________________________________________________________________________________________________
conv2d_239 (Conv2D)              (None, 14, 14, 256)   262400      activation_233[0][0]             
____________________________________________________________________________________________________
batch_normalization_234 (BatchNo (None, 14, 14, 256)   1024        conv2d_239[0][0]                 
____________________________________________________________________________________________________
activation_234 (Activation)      (None, 14, 14, 256)   0           batch_normalization_234[0][0]    
____________________________________________________________________________________________________
conv2d_240 (Conv2D)              (None, 14, 14, 256)   590080      activation_234[0][0]             
____________________________________________________________________________________________________
batch_normalization_235 (BatchNo (None, 14, 14, 256)   1024        conv2d_240[0][0]                 
____________________________________________________________________________________________________
activation_235 (Activation)      (None, 14, 14, 256)   0           batch_normalization_235[0][0]    
____________________________________________________________________________________________________
conv2d_241 (Conv2D)              (None, 14, 14, 1024)  263168      activation_235[0][0]             
____________________________________________________________________________________________________
add_78 (Add)                     (None, 14, 14, 1024)  0           add_77[0][0]                     
                                                                   conv2d_241[0][0]                 
____________________________________________________________________________________________________
batch_normalization_236 (BatchNo (None, 14, 14, 1024)  4096        add_78[0][0]                     
____________________________________________________________________________________________________
activation_236 (Activation)      (None, 14, 14, 1024)  0           batch_normalization_236[0][0]    
____________________________________________________________________________________________________
conv2d_242 (Conv2D)              (None, 14, 14, 256)   262400      activation_236[0][0]             
____________________________________________________________________________________________________
batch_normalization_237 (BatchNo (None, 14, 14, 256)   1024        conv2d_242[0][0]                 
____________________________________________________________________________________________________
activation_237 (Activation)      (None, 14, 14, 256)   0           batch_normalization_237[0][0]    
____________________________________________________________________________________________________
conv2d_243 (Conv2D)              (None, 14, 14, 256)   590080      activation_237[0][0]             
____________________________________________________________________________________________________
batch_normalization_238 (BatchNo (None, 14, 14, 256)   1024        conv2d_243[0][0]                 
____________________________________________________________________________________________________
activation_238 (Activation)      (None, 14, 14, 256)   0           batch_normalization_238[0][0]    
____________________________________________________________________________________________________
conv2d_244 (Conv2D)              (None, 14, 14, 1024)  263168      activation_238[0][0]             
____________________________________________________________________________________________________
add_79 (Add)                     (None, 14, 14, 1024)  0           add_78[0][0]                     
                                                                   conv2d_244[0][0]                 
____________________________________________________________________________________________________
batch_normalization_239 (BatchNo (None, 14, 14, 1024)  4096        add_79[0][0]                     
____________________________________________________________________________________________________
activation_239 (Activation)      (None, 14, 14, 1024)  0           batch_normalization_239[0][0]    
____________________________________________________________________________________________________
conv2d_245 (Conv2D)              (None, 14, 14, 256)   262400      activation_239[0][0]             
____________________________________________________________________________________________________
batch_normalization_240 (BatchNo (None, 14, 14, 256)   1024        conv2d_245[0][0]                 
____________________________________________________________________________________________________
activation_240 (Activation)      (None, 14, 14, 256)   0           batch_normalization_240[0][0]    
____________________________________________________________________________________________________
conv2d_246 (Conv2D)              (None, 14, 14, 256)   590080      activation_240[0][0]             
____________________________________________________________________________________________________
batch_normalization_241 (BatchNo (None, 14, 14, 256)   1024        conv2d_246[0][0]                 
____________________________________________________________________________________________________
activation_241 (Activation)      (None, 14, 14, 256)   0           batch_normalization_241[0][0]    
____________________________________________________________________________________________________
conv2d_247 (Conv2D)              (None, 14, 14, 1024)  263168      activation_241[0][0]             
____________________________________________________________________________________________________
add_80 (Add)                     (None, 14, 14, 1024)  0           add_79[0][0]                     
                                                                   conv2d_247[0][0]                 
____________________________________________________________________________________________________
batch_normalization_242 (BatchNo (None, 14, 14, 1024)  4096        add_80[0][0]                     
____________________________________________________________________________________________________
activation_242 (Activation)      (None, 14, 14, 1024)  0           batch_normalization_242[0][0]    
____________________________________________________________________________________________________
conv2d_248 (Conv2D)              (None, 14, 14, 256)   262400      activation_242[0][0]             
____________________________________________________________________________________________________
batch_normalization_243 (BatchNo (None, 14, 14, 256)   1024        conv2d_248[0][0]                 
____________________________________________________________________________________________________
activation_243 (Activation)      (None, 14, 14, 256)   0           batch_normalization_243[0][0]    
____________________________________________________________________________________________________
conv2d_249 (Conv2D)              (None, 14, 14, 256)   590080      activation_243[0][0]             
____________________________________________________________________________________________________
batch_normalization_244 (BatchNo (None, 14, 14, 256)   1024        conv2d_249[0][0]                 
____________________________________________________________________________________________________
activation_244 (Activation)      (None, 14, 14, 256)   0           batch_normalization_244[0][0]    
____________________________________________________________________________________________________
conv2d_250 (Conv2D)              (None, 14, 14, 1024)  263168      activation_244[0][0]             
____________________________________________________________________________________________________
add_81 (Add)                     (None, 14, 14, 1024)  0           add_80[0][0]                     
                                                                   conv2d_250[0][0]                 
____________________________________________________________________________________________________
batch_normalization_245 (BatchNo (None, 14, 14, 1024)  4096        add_81[0][0]                     
____________________________________________________________________________________________________
activation_245 (Activation)      (None, 14, 14, 1024)  0           batch_normalization_245[0][0]    
____________________________________________________________________________________________________
conv2d_251 (Conv2D)              (None, 14, 14, 256)   262400      activation_245[0][0]             
____________________________________________________________________________________________________
batch_normalization_246 (BatchNo (None, 14, 14, 256)   1024        conv2d_251[0][0]                 
____________________________________________________________________________________________________
activation_246 (Activation)      (None, 14, 14, 256)   0           batch_normalization_246[0][0]    
____________________________________________________________________________________________________
conv2d_252 (Conv2D)              (None, 14, 14, 256)   590080      activation_246[0][0]             
____________________________________________________________________________________________________
batch_normalization_247 (BatchNo (None, 14, 14, 256)   1024        conv2d_252[0][0]                 
____________________________________________________________________________________________________
activation_247 (Activation)      (None, 14, 14, 256)   0           batch_normalization_247[0][0]    
____________________________________________________________________________________________________
conv2d_253 (Conv2D)              (None, 14, 14, 1024)  263168      activation_247[0][0]             
____________________________________________________________________________________________________
add_82 (Add)                     (None, 14, 14, 1024)  0           add_81[0][0]                     
                                                                   conv2d_253[0][0]                 
____________________________________________________________________________________________________
batch_normalization_248 (BatchNo (None, 14, 14, 1024)  4096        add_82[0][0]                     
____________________________________________________________________________________________________
activation_248 (Activation)      (None, 14, 14, 1024)  0           batch_normalization_248[0][0]    
____________________________________________________________________________________________________
conv2d_254 (Conv2D)              (None, 14, 14, 256)   262400      activation_248[0][0]             
____________________________________________________________________________________________________
batch_normalization_249 (BatchNo (None, 14, 14, 256)   1024        conv2d_254[0][0]                 
____________________________________________________________________________________________________
activation_249 (Activation)      (None, 14, 14, 256)   0           batch_normalization_249[0][0]    
____________________________________________________________________________________________________
conv2d_255 (Conv2D)              (None, 14, 14, 256)   590080      activation_249[0][0]             
____________________________________________________________________________________________________
batch_normalization_250 (BatchNo (None, 14, 14, 256)   1024        conv2d_255[0][0]                 
____________________________________________________________________________________________________
activation_250 (Activation)      (None, 14, 14, 256)   0           batch_normalization_250[0][0]    
____________________________________________________________________________________________________
conv2d_256 (Conv2D)              (None, 14, 14, 1024)  263168      activation_250[0][0]             
____________________________________________________________________________________________________
add_83 (Add)                     (None, 14, 14, 1024)  0           add_82[0][0]                     
                                                                   conv2d_256[0][0]                 
____________________________________________________________________________________________________
batch_normalization_251 (BatchNo (None, 14, 14, 1024)  4096        add_83[0][0]                     
____________________________________________________________________________________________________
activation_251 (Activation)      (None, 14, 14, 1024)  0           batch_normalization_251[0][0]    
____________________________________________________________________________________________________
conv2d_257 (Conv2D)              (None, 14, 14, 256)   262400      activation_251[0][0]             
____________________________________________________________________________________________________
batch_normalization_252 (BatchNo (None, 14, 14, 256)   1024        conv2d_257[0][0]                 
____________________________________________________________________________________________________
activation_252 (Activation)      (None, 14, 14, 256)   0           batch_normalization_252[0][0]    
____________________________________________________________________________________________________
conv2d_258 (Conv2D)              (None, 14, 14, 256)   590080      activation_252[0][0]             
____________________________________________________________________________________________________
batch_normalization_253 (BatchNo (None, 14, 14, 256)   1024        conv2d_258[0][0]                 
____________________________________________________________________________________________________
activation_253 (Activation)      (None, 14, 14, 256)   0           batch_normalization_253[0][0]    
____________________________________________________________________________________________________
conv2d_259 (Conv2D)              (None, 14, 14, 1024)  263168      activation_253[0][0]             
____________________________________________________________________________________________________
add_84 (Add)                     (None, 14, 14, 1024)  0           add_83[0][0]                     
                                                                   conv2d_259[0][0]                 
____________________________________________________________________________________________________
batch_normalization_254 (BatchNo (None, 14, 14, 1024)  4096        add_84[0][0]                     
____________________________________________________________________________________________________
activation_254 (Activation)      (None, 14, 14, 1024)  0           batch_normalization_254[0][0]    
____________________________________________________________________________________________________
conv2d_260 (Conv2D)              (None, 14, 14, 256)   262400      activation_254[0][0]             
____________________________________________________________________________________________________
batch_normalization_255 (BatchNo (None, 14, 14, 256)   1024        conv2d_260[0][0]                 
____________________________________________________________________________________________________
activation_255 (Activation)      (None, 14, 14, 256)   0           batch_normalization_255[0][0]    
____________________________________________________________________________________________________
conv2d_261 (Conv2D)              (None, 14, 14, 256)   590080      activation_255[0][0]             
____________________________________________________________________________________________________
batch_normalization_256 (BatchNo (None, 14, 14, 256)   1024        conv2d_261[0][0]                 
____________________________________________________________________________________________________
activation_256 (Activation)      (None, 14, 14, 256)   0           batch_normalization_256[0][0]    
____________________________________________________________________________________________________
conv2d_262 (Conv2D)              (None, 14, 14, 1024)  263168      activation_256[0][0]             
____________________________________________________________________________________________________
add_85 (Add)                     (None, 14, 14, 1024)  0           add_84[0][0]                     
                                                                   conv2d_262[0][0]                 
____________________________________________________________________________________________________
batch_normalization_257 (BatchNo (None, 14, 14, 1024)  4096        add_85[0][0]                     
____________________________________________________________________________________________________
activation_257 (Activation)      (None, 14, 14, 1024)  0           batch_normalization_257[0][0]    
____________________________________________________________________________________________________
conv2d_263 (Conv2D)              (None, 14, 14, 256)   262400      activation_257[0][0]             
____________________________________________________________________________________________________
batch_normalization_258 (BatchNo (None, 14, 14, 256)   1024        conv2d_263[0][0]                 
____________________________________________________________________________________________________
activation_258 (Activation)      (None, 14, 14, 256)   0           batch_normalization_258[0][0]    
____________________________________________________________________________________________________
conv2d_264 (Conv2D)              (None, 14, 14, 256)   590080      activation_258[0][0]             
____________________________________________________________________________________________________
batch_normalization_259 (BatchNo (None, 14, 14, 256)   1024        conv2d_264[0][0]                 
____________________________________________________________________________________________________
activation_259 (Activation)      (None, 14, 14, 256)   0           batch_normalization_259[0][0]    
____________________________________________________________________________________________________
conv2d_265 (Conv2D)              (None, 14, 14, 1024)  263168      activation_259[0][0]             
____________________________________________________________________________________________________
add_86 (Add)                     (None, 14, 14, 1024)  0           add_85[0][0]                     
                                                                   conv2d_265[0][0]                 
____________________________________________________________________________________________________
batch_normalization_260 (BatchNo (None, 14, 14, 1024)  4096        add_86[0][0]                     
____________________________________________________________________________________________________
activation_260 (Activation)      (None, 14, 14, 1024)  0           batch_normalization_260[0][0]    
____________________________________________________________________________________________________
conv2d_266 (Conv2D)              (None, 14, 14, 256)   262400      activation_260[0][0]             
____________________________________________________________________________________________________
batch_normalization_261 (BatchNo (None, 14, 14, 256)   1024        conv2d_266[0][0]                 
____________________________________________________________________________________________________
activation_261 (Activation)      (None, 14, 14, 256)   0           batch_normalization_261[0][0]    
____________________________________________________________________________________________________
conv2d_267 (Conv2D)              (None, 14, 14, 256)   590080      activation_261[0][0]             
____________________________________________________________________________________________________
batch_normalization_262 (BatchNo (None, 14, 14, 256)   1024        conv2d_267[0][0]                 
____________________________________________________________________________________________________
activation_262 (Activation)      (None, 14, 14, 256)   0           batch_normalization_262[0][0]    
____________________________________________________________________________________________________
conv2d_268 (Conv2D)              (None, 14, 14, 1024)  263168      activation_262[0][0]             
____________________________________________________________________________________________________
add_87 (Add)                     (None, 14, 14, 1024)  0           add_86[0][0]                     
                                                                   conv2d_268[0][0]                 
____________________________________________________________________________________________________
batch_normalization_263 (BatchNo (None, 14, 14, 1024)  4096        add_87[0][0]                     
____________________________________________________________________________________________________
activation_263 (Activation)      (None, 14, 14, 1024)  0           batch_normalization_263[0][0]    
____________________________________________________________________________________________________
conv2d_269 (Conv2D)              (None, 14, 14, 256)   262400      activation_263[0][0]             
____________________________________________________________________________________________________
batch_normalization_264 (BatchNo (None, 14, 14, 256)   1024        conv2d_269[0][0]                 
____________________________________________________________________________________________________
activation_264 (Activation)      (None, 14, 14, 256)   0           batch_normalization_264[0][0]    
____________________________________________________________________________________________________
conv2d_270 (Conv2D)              (None, 14, 14, 256)   590080      activation_264[0][0]             
____________________________________________________________________________________________________
batch_normalization_265 (BatchNo (None, 14, 14, 256)   1024        conv2d_270[0][0]                 
____________________________________________________________________________________________________
activation_265 (Activation)      (None, 14, 14, 256)   0           batch_normalization_265[0][0]    
____________________________________________________________________________________________________
conv2d_271 (Conv2D)              (None, 14, 14, 1024)  263168      activation_265[0][0]             
____________________________________________________________________________________________________
add_88 (Add)                     (None, 14, 14, 1024)  0           add_87[0][0]                     
                                                                   conv2d_271[0][0]                 
____________________________________________________________________________________________________
batch_normalization_266 (BatchNo (None, 14, 14, 1024)  4096        add_88[0][0]                     
____________________________________________________________________________________________________
activation_266 (Activation)      (None, 14, 14, 1024)  0           batch_normalization_266[0][0]    
____________________________________________________________________________________________________
conv2d_272 (Conv2D)              (None, 14, 14, 256)   262400      activation_266[0][0]             
____________________________________________________________________________________________________
batch_normalization_267 (BatchNo (None, 14, 14, 256)   1024        conv2d_272[0][0]                 
____________________________________________________________________________________________________
activation_267 (Activation)      (None, 14, 14, 256)   0           batch_normalization_267[0][0]    
____________________________________________________________________________________________________
conv2d_273 (Conv2D)              (None, 14, 14, 256)   590080      activation_267[0][0]             
____________________________________________________________________________________________________
batch_normalization_268 (BatchNo (None, 14, 14, 256)   1024        conv2d_273[0][0]                 
____________________________________________________________________________________________________
activation_268 (Activation)      (None, 14, 14, 256)   0           batch_normalization_268[0][0]    
____________________________________________________________________________________________________
conv2d_274 (Conv2D)              (None, 14, 14, 1024)  263168      activation_268[0][0]             
____________________________________________________________________________________________________
add_89 (Add)                     (None, 14, 14, 1024)  0           add_88[0][0]                     
                                                                   conv2d_274[0][0]                 
____________________________________________________________________________________________________
batch_normalization_269 (BatchNo (None, 14, 14, 1024)  4096        add_89[0][0]                     
____________________________________________________________________________________________________
activation_269 (Activation)      (None, 14, 14, 1024)  0           batch_normalization_269[0][0]    
____________________________________________________________________________________________________
conv2d_275 (Conv2D)              (None, 14, 14, 256)   262400      activation_269[0][0]             
____________________________________________________________________________________________________
batch_normalization_270 (BatchNo (None, 14, 14, 256)   1024        conv2d_275[0][0]                 
____________________________________________________________________________________________________
activation_270 (Activation)      (None, 14, 14, 256)   0           batch_normalization_270[0][0]    
____________________________________________________________________________________________________
conv2d_276 (Conv2D)              (None, 14, 14, 256)   590080      activation_270[0][0]             
____________________________________________________________________________________________________
batch_normalization_271 (BatchNo (None, 14, 14, 256)   1024        conv2d_276[0][0]                 
____________________________________________________________________________________________________
activation_271 (Activation)      (None, 14, 14, 256)   0           batch_normalization_271[0][0]    
____________________________________________________________________________________________________
conv2d_277 (Conv2D)              (None, 14, 14, 1024)  263168      activation_271[0][0]             
____________________________________________________________________________________________________
add_90 (Add)                     (None, 14, 14, 1024)  0           add_89[0][0]                     
                                                                   conv2d_277[0][0]                 
____________________________________________________________________________________________________
batch_normalization_272 (BatchNo (None, 14, 14, 1024)  4096        add_90[0][0]                     
____________________________________________________________________________________________________
activation_272 (Activation)      (None, 14, 14, 1024)  0           batch_normalization_272[0][0]    
____________________________________________________________________________________________________
conv2d_278 (Conv2D)              (None, 7, 7, 512)     524800      activation_272[0][0]             
____________________________________________________________________________________________________
batch_normalization_273 (BatchNo (None, 7, 7, 512)     2048        conv2d_278[0][0]                 
____________________________________________________________________________________________________
activation_273 (Activation)      (None, 7, 7, 512)     0           batch_normalization_273[0][0]    
____________________________________________________________________________________________________
conv2d_279 (Conv2D)              (None, 7, 7, 512)     2359808     activation_273[0][0]             
____________________________________________________________________________________________________
batch_normalization_274 (BatchNo (None, 7, 7, 512)     2048        conv2d_279[0][0]                 
____________________________________________________________________________________________________
activation_274 (Activation)      (None, 7, 7, 512)     0           batch_normalization_274[0][0]    
____________________________________________________________________________________________________
conv2d_281 (Conv2D)              (None, 7, 7, 2048)    2099200     add_90[0][0]                     
____________________________________________________________________________________________________
conv2d_280 (Conv2D)              (None, 7, 7, 2048)    1050624     activation_274[0][0]             
____________________________________________________________________________________________________
add_91 (Add)                     (None, 7, 7, 2048)    0           conv2d_281[0][0]                 
                                                                   conv2d_280[0][0]                 
____________________________________________________________________________________________________
batch_normalization_275 (BatchNo (None, 7, 7, 2048)    8192        add_91[0][0]                     
____________________________________________________________________________________________________
activation_275 (Activation)      (None, 7, 7, 2048)    0           batch_normalization_275[0][0]    
____________________________________________________________________________________________________
conv2d_282 (Conv2D)              (None, 7, 7, 512)     1049088     activation_275[0][0]             
____________________________________________________________________________________________________
batch_normalization_276 (BatchNo (None, 7, 7, 512)     2048        conv2d_282[0][0]                 
____________________________________________________________________________________________________
activation_276 (Activation)      (None, 7, 7, 512)     0           batch_normalization_276[0][0]    
____________________________________________________________________________________________________
conv2d_283 (Conv2D)              (None, 7, 7, 512)     2359808     activation_276[0][0]             
____________________________________________________________________________________________________
batch_normalization_277 (BatchNo (None, 7, 7, 512)     2048        conv2d_283[0][0]                 
____________________________________________________________________________________________________
activation_277 (Activation)      (None, 7, 7, 512)     0           batch_normalization_277[0][0]    
____________________________________________________________________________________________________
conv2d_284 (Conv2D)              (None, 7, 7, 2048)    1050624     activation_277[0][0]             
____________________________________________________________________________________________________
add_92 (Add)                     (None, 7, 7, 2048)    0           add_91[0][0]                     
                                                                   conv2d_284[0][0]                 
____________________________________________________________________________________________________
batch_normalization_278 (BatchNo (None, 7, 7, 2048)    8192        add_92[0][0]                     
____________________________________________________________________________________________________
activation_278 (Activation)      (None, 7, 7, 2048)    0           batch_normalization_278[0][0]    
____________________________________________________________________________________________________
conv2d_285 (Conv2D)              (None, 7, 7, 512)     1049088     activation_278[0][0]             
____________________________________________________________________________________________________
batch_normalization_279 (BatchNo (None, 7, 7, 512)     2048        conv2d_285[0][0]                 
____________________________________________________________________________________________________
activation_279 (Activation)      (None, 7, 7, 512)     0           batch_normalization_279[0][0]    
____________________________________________________________________________________________________
conv2d_286 (Conv2D)              (None, 7, 7, 512)     2359808     activation_279[0][0]             
____________________________________________________________________________________________________
batch_normalization_280 (BatchNo (None, 7, 7, 512)     2048        conv2d_286[0][0]                 
____________________________________________________________________________________________________
activation_280 (Activation)      (None, 7, 7, 512)     0           batch_normalization_280[0][0]    
____________________________________________________________________________________________________
conv2d_287 (Conv2D)              (None, 7, 7, 2048)    1050624     activation_280[0][0]             
____________________________________________________________________________________________________
add_93 (Add)                     (None, 7, 7, 2048)    0           add_92[0][0]                     
                                                                   conv2d_287[0][0]                 
____________________________________________________________________________________________________
batch_normalization_281 (BatchNo (None, 7, 7, 2048)    8192        add_93[0][0]                     
____________________________________________________________________________________________________
activation_281 (Activation)      (None, 7, 7, 2048)    0           batch_normalization_281[0][0]    
____________________________________________________________________________________________________
average_pooling2d_2 (AveragePool (None, 1, 1, 2048)    0           activation_281[0][0]             
____________________________________________________________________________________________________
flatten_2 (Flatten)              (None, 2048)          0           average_pooling2d_2[0][0]        
____________________________________________________________________________________________________
dense_2 (Dense)                  (None, 3)             6147        flatten_2[0][0]                  
====================================================================================================
Total params: 58,361,731
Trainable params: 58,217,987
Non-trainable params: 143,744
____________________________________________________________________________________________________
None
